assignment_3_intermediate/transformer.pth (torch, 389133 bytes, 130 tensors)

embed.pe f4 [1, 400, 32]
0.0 1.0 0.0 1.0 0.0 1.0 0.0 1.0
0.0 1.0 0.0 1.0 0.0 1.0 0.0 1.0
0.0 1.0 0.0 1.0 0.0 1.0 0.0 1.0
0.0 1.0 0.0 1.0 0.0 1.0 0.0 1.0
0.84147096 0.731761 0.53316844 0.91239583 0.3109836 0.9720144 0.17689219 0.99112177
0.099833414 0.9971896 0.056204498 0.999111 0.031617507 0.99971884 0.017781857 0.99991107
0.009999833 0.99997187 0.0056233834 0.9999911 0.0031622723 0.9999972 0.0017782785 0.9999991
0.0009999998 0.9999997 0.0005623413 0.99999994 0.00031622776 1.0 0.00017782794 1.0
0.9092974 0.07094825 0.9021307 0.6649324 0.5911271 0.8896242 0.34820527 0.96464473
0.19866933 0.98877424 0.112231314 0.99644554 0.063203394 0.9988755 0.03555809 0.99964434
0.019998666 0.9998875 0.011246589 0.9999644 0.0063245133 0.99998873 0.0035565514 0.9999964
0.0019999987 0.99999887 0.0011246824 0.99999964 0.0006324555 0.9999999 0.00035565588 0.99999994
0.14112 -0.62792665 0.9932532 0.3009673 0.8126489 0.7574407 0.50853616 0.92103904
0.29552022 0.9748012 0.1679033 0.9920084 0.09472609 0.99747056 0.05332308 0.99919987
0.029995501 0.999747 0.016869439 0.99991995 0.009486691 0.99997467 0.005334813 0.999992
0.0029999956 0.9999975 0.0016870232 0.9999992 0.0009486832 0.99999976 0.0005334838 0.99999994
-0.7568025 -0.9899327 0.77847177 -0.11572978 0.95358074 0.5828624 0.652828 0.8610789
0.38941833 0.95534897 0.22304448 0.9858075 0.12615407 0.9955046 0.07107121 0.9985777
0.039989334 0.99955016 0.022491757 0.9998577 0.012648773 0.999955 0.0071130577 0.99998575
0.0039999895 0.9999955 0.0022493633 0.99999857 0.0012649107 0.9999995 0.0007113117 0.9999999
-0.9589243 -0.8208616 0.3239352 -0.51215005 0.99994653 0.3756606 0.77652997 0.7858291
0.47942555 0.930527 0.27748054 0.9778537 0.15745589 0.992979 0.08879686 0.997778
0.04997917 0.99929714 0.028113361 0.99977773 0.01581073 0.9999297 0.00889128 0.99997777
0.0049999794 0.99999297 0.002811703 0.9999978 0.0015811381 0.9999993 0.0008891396 0.99999976
-0.2794155 -0.21141624 -0.23036748 -0.8188374 0.94714814 0.1474327 0.8757406 0.69662577
0.5646425 0.9004747 0.33103934 0.96816134 0.18860029 0.9898949 0.106494434 0.9968008
0.059964005 0.998988 0.03373408 0.9996799 0.018972527 0.9998988 0.010669474 0.999968
0.005999964 0.99998987 0.0033740415 0.9999968 0.0018973654 0.999999 0.0010669675 0.9999997
0.6569866 0.5114493 -0.71372116 -0.98205763 0.80042166 -0.08904716 0.9473307 0.5950528
0.64421767 0.86536103 0.38355157 0.9567476 0.2195561 0.9862542 0.12415834 0.99564636
0.06994285 0.9986226 0.03935373 0.99956435 0.022134136 0.99986225 0.012447635 0.9999564
0.006999943 0.99998623 0.003936379 0.99999565 0.0022135926 0.9999986 0.0012447953 0.9999996
00000000: 0000 0000 0000 803f 0000 0000 0000 803f
00000010: 0000 0000 0000 803f 0000 0000 0000 803f
00000020: 0000 0000 0000 803f 0000 0000 0000 803f
00000030: 0000 0000 0000 803f 0000 0000 0000 803f
00000040: 0000 0000 0000 803f 0000 0000 0000 803f
00000050: 0000 0000 0000 803f 0000 0000 0000 803f
00000060: 0000 0000 0000 803f 0000 0000 0000 803f
00000070: 0000 0000 0000 803f 0000 0000 0000 803f
00000080: a46a 573f b054 3b3f ba7d 083f c692 693f
00000090: 3e39 9f3e f0d5 783f 3a23 353e 28ba 7d3f
000000a0: 7675 cc3d d147 7f3f b036 663d bdc5 7f3f
000000b0: 5c81 013d 93ed 7f3f 42ab 913c 2cfa 7f3f
000000c0: 57d6 233c 28fe 7f3f 5c44 b83b 6bff 7f3f
000000d0: 203e 4f3b d1ff 7f3f 2015 e93a f1ff 7f3f
000000e0: 6d12 833a fbff 7f3f 166a 133a ffff 7f3f
000000f0: 5fcb a539 0000 803f 5377 3a39 0000 803f
00000100: b7c7 683f 514d 913d 0af2 663f 0339 2a3f
00000110: 1b54 173f 69be 633f f647 b23e f5f2 763f
00000120: f96f 4b3e 4f20 7d3f 88d9 e53d 0e17 7f3f
00000130: c870 813d 4eb6 7f3f 5ca5 113d b1e8 7f3f
00000140: 3ed4 a33c a1f8 7f3f 9d43 383c abfd 7f3f
00000150: dd3d cf3b 43ff 7f3f 0815 693b c4ff 7f3f
00000160: 6912 033b edff 7f3f 146a 933a faff 7f3f
00000170: 5fcb 253a feff 7f3f 5377 ba39 ffff 7f3f
00000180: c381 103e cdbf 20bf d745 7e3f 6318 9a3e
00000190: c209 503f a2e7 413f 6d2f 023f 37c9 6b3f
000001a0: 6d4e 973e 928c 793f d8ee 2b3e 43f4 7d3f
000001b0: c1ff c13d 3b5a 7f3f 4d69 5a3d 90cb 7f3f
000001c0: 20b9 f53c 6bef 7f3f c731 8a3c c1fa 7f3f
000001d0: 116e 1b3c 57fe 7f3f a8cf ae3b 7aff 7f3f
000001e0: 939b 443b d6ff 7f3f 1b1f dd3a f3ff 7f3f
000001f0: 0db1 783a fcff 7f3f 7ed9 0b3a ffff 7f3f
00000200: cfbd 41bf 3b6c 7dbf ed49 473f bc03 edbd
00000210: de1d 743f 7836 153f bc1f 273f ab6f 5c3f
00000220: d761 c73e c091 743f c665 643e e15d 7c3f
00000230: 882e 013e 64d9 7e3f c88d 913d caa2 7f3f
00000240: dbcb 233d 85e2 7f3f a240 b83c adf6 7f3f
00000250: cd3c 4f3c 0dfd 7f3f a714 e93b 11ff 7f3f
00000260: 5812 833b b5ff 7f3f 0e6a 133b e8ff 7f3f
00000270: 5ccb a53a f8ff 7f3f 5277 3a3a feff 7f3f
00000280: 107c 75bf fc23 52bf d6da a53e 441c 03bf
00000290: 7ffc 7f3f 9656 c03e abca 463f 192c 493f
000002a0: 4477 f53e 0437 6e3f ee11 8e3e 9f54 7a3f
000002b0: 1e3c 213e df33 7e3f 21db b53d 616e 7f3f
000002c0: f5b6 4c3d f0d1 7f3f fe4d e63c 6ff1 7f3f
000002d0: 8185 813c 65fb 7f3f bbac 113c 8bfe 7f3f
000002e0: ded6 a33b 8aff 7f3f 8c44 383b dbff 7f3f
000002f0: 313e cf3a f4ff 7f3f 2615 693a fcff 7f3f
00000300: 8c0f 8fbe 807d 58be 74e5 6bbe 549f 51bf
00000310: 4d78 723f 99f8 163e 8930 603f 1156 323f
00000320: 698c 103f 8385 663f fd7d a93e 6cd9 773f
00000330: 6f20 413e c169 7d3f c119 da3d 562e 7f3f
00000340: d19c 753d adbd 7f3f bf2c 0a3d 06eb 7f3f
00000350: 466c 9b3c 5ef9 7f3f 04cf 2e3c e7fd 7f3f
00000360: 599b c43b 56ff 7f3f 061f 5d3b caff 7f3f
00000370: 05b1 f83a efff 7f3f 7dd9 8b3a fbff 7f3f
00000380: 4630 283f 57ee 023f 6eb6 36bf 2168 7bbf
00000390: 6fe8 4c3f 5c5e b6bd 4484 723f 6155 183f
000003a0: 73eb 243f 4d88 5d3f df60 c43e 69ed 743f
000003b0: 50d3 603e 287b 7c3f ba46 fe3d aee2 7e3f
000003c0: 323e 8f3d bba5 7f3f 6031 213d 73e3 7f3f
000003d0: a652 b53c f9f6 7f3f 2af1 4b3c 25fd 7f3f
000003e0: c75f e53b 19ff 7f3f befc 803b b7ff 7f3f
000003f0: ec11 113b e9ff 7f3f 6628 a33a f9ff 7f3f

embed.embed.weight f4 [136, 32]
-0.17387232 0.05629864 0.12047888 -0.0025754718 0.14907725 -0.022833573 0.009207247 -0.10673728
0.0075272033 -0.036103647 0.028440988 -0.0012733842 0.19262691 0.0045117512 0.053012706 0.17195892
-0.094567835 0.05714352 0.13226299 0.014505803 0.14605656 0.10240425 -0.2801841 0.12844019
-0.15043832 -0.06585686 0.095068134 0.033579197 -0.055702128 -0.19484568 0.08937799 -0.020882307
0.043644268 0.2760157 -0.074948125 -0.14597534 0.11763542 0.11580998 0.19896841 0.13837503
0.074218124 -0.097222775 0.00010163252 0.013848624 0.19214998 -0.073002994 -0.0081063425 -0.012620536
-0.11217165 0.0690591 -0.22180986 0.021170674 -0.024342751 -0.057243355 0.16223447 0.029443104
0.12395318 0.0025622179 0.04727742 0.13467343 -0.077522 0.012333311 -0.042828113 -0.04648626
-0.0039300127 -0.21866564 0.092912 -0.056586273 0.033736404 0.013821411 -0.0051385616 -0.05661397
0.033098705 -0.15968542 0.08359682 0.02137681 -0.12657183 0.02001479 0.062811725 0.15412483
0.11648392 0.11676514 -0.09385584 -0.06100312 -0.00057255843 -0.09723868 -0.09654865 -0.05961063
0.14139728 -0.013954721 -0.07687984 -0.10396266 -0.046947554 0.064395554 0.103493296 -0.0099759605
-0.1416912 -0.0039350884 -0.011065952 -0.046278473 -0.031433653 0.06556149 0.1104215 0.01202189
0.08167889 0.005532771 0.11519305 0.14560008 -0.13676262 0.062920146 -0.08360053 -0.009097724
0.17164168 -0.16176002 0.009791624 0.048355874 0.11325099 -0.032264736 -0.100432314 -0.048495825
-0.039943278 -0.053356346 -0.14207873 -0.17617124 -0.15328301 0.015662981 0.045415763 -0.2193239
0.03316958 0.12089175 0.15968905 -0.034251723 -0.013285655 0.0500103 -0.08367365 -0.012368085
0.08218428 0.015589883 -0.21018504 0.08243902 -0.03848547 0.1260017 -0.19457874 0.0325001
0.07590468 0.026561135 -0.05132376 -0.014908949 0.083926536 -0.038690597 0.08599252 -0.110509135
-0.055383634 0.14989169 -0.07214063 -0.09211307 0.12628548 -0.16241424 -0.077135004 -0.03883933
0.009800165 -0.02849847 0.042908933 -0.020161776 -0.1262646 -0.03467996 0.14326586 0.17610872
0.087156765 -0.09369339 0.029615674 0.11741997 0.05869205 -0.05274659 0.0801601 0.010691579
-0.033892184 -0.0554186 0.14808567 -0.16122139 0.11161673 0.05791877 0.089671865 0.05000655
0.13374677 -0.07454105 -0.07574886 -0.1272795 0.036265697 0.052210905 0.037339788 -0.11172161
0.04681461 0.022019967 0.12920105 -0.06450098 -0.009750825 -0.09350141 -0.120470576 0.04675178
-0.10634923 0.14061458 0.011524341 0.10784882 -0.04703885 -0.026185969 -0.17343514 -0.15214036
0.11465068 -0.008074488 0.0154712815 -0.07694976 -0.0695761 -0.11224114 0.047001667 -0.070463076
-0.14868663 -0.05329364 0.03698356 -0.07855434 0.0030401947 0.099038996 0.05955201 0.06690096
0.081100404 -0.10444619 0.042217042 0.03669555 -0.010015483 -0.1495445 -0.106781356 0.07824801
-0.110815965 -0.029405285 -0.06176106 -0.0051354202 -0.09188586 -0.15934369 -0.05355334 -0.041908063
-0.030805591 0.15382218 -0.042016443 -0.036243107 0.020724067 -0.16875805 0.17291497 0.07324057
-0.02045641 0.04872037 -0.14544249 0.17124894 0.008344936 0.119878665 0.08758893 0.053626984
00000000: 960b 32be 6799 663d a2bd f63d 3fc9 28bb
00000010: b5a7 183e 790d bbbc fed9 163c 1399 dabd
00000020: c2a6 f63b 6be1 13bd 13fd e83c afe7 a6ba
00000030: fd3f 453e 50d7 933b da23 593d 0016 303e
00000040: c8ac c1bd 530f 6a3d f36f 073e bfa9 6d3c
00000050: da8f 153e 52b9 d13d 4a74 8fbe d385 033e
00000060: 810c 1abe f6df 86bd 15b3 c23d 578a 093d
00000070: ea27 64bd a085 47be cf0b b73d 5f11 abbc
00000080: 55c4 323d ee51 8d3e 677e 99bd 8f7a 15be
00000090: d7ea f03d c82d ed3d 60be 4b3e 2fb2 0d3e
000000a0: acff 973d bc1c c7bd 8b23 d538 57e5 623c
000000b0: f7c2 443e 9882 95bd 77d0 04bc 5dc6 4ebc
000000c0: 40ba e5bd db6e 8d3d 2022 63be 1f6e ad3c
000000d0: 736a c7bc 0278 6abd cb20 263e aa32 f13c
000000e0: 2adb fd3d e2ea 273b f8a5 413d d5e7 093e
000000f0: dbc3 9ebd a811 4a3c 886c 2fbd 6068 3ebd
00000100: 56c7 80bb e3e9 5fbe a648 be3d 02c7 67bd
00000110: 2f2f 0a3d 3373 623c 6161 a8bb 0de4 67bd
00000120: 8292 073d 9384 23be cf34 ab3d 6b1e af3c
00000130: 0c9c 01be 0ff6 a33c 6fa3 803d e6d2 1d3e
00000140: 1f8f ee3d 9022 ef3d 7e37 c0bd 68de 79bd
00000150: bf17 16ba 1325 c7bd 4cbb c5bd 472a 74bd
00000160: 73ca 103e 58a2 64bc 2d73 9dbd 60ea d4bd
00000170: 144c 40bd d1e1 833d 4bf4 d33d 3672 23bc
00000180: 7f17 11be eaf1 80bb f74d 35bc 7f8e 3dbd
00000190: 93c0 00bd 1a45 863d ab24 e23d 76f7 443c
000001a0: 4347 a73d 3f4c b53b 55ea eb3d 3018 153e
000001b0: 800b 0cbe 47dc 803d c136 abbd 9f0e 15bc
000001c0: d6c2 2f3e 6ba4 25be 0c6d 203c cf10 463d
000001d0: 23f0 e73d 0728 04bd 75af cdbd 8fa3 46bd
000001e0: 909b 23bd 2f8c 5abd 167d 11be 3c66 34be
000001f0: 39f6 1cbe a74f 803c e105 3a3d 7296 60be
00000200: d3dc 073d 1896 f73d 8785 233e 894b 0cbd
00000210: 13ac 59bc 9ad7 4c3d 175d abbd 82a3 4abc
00000220: 3b50 a83d b56c 7f3c bf3a 57be cad5 a83d
00000230: f1a2 1dbd 9706 013e a63f 47be d31e 053d
00000240: ea73 9b3d bd96 d93c dd38 52bd aa44 74bc
00000250: ade1 ab3d 087a 1ebd d91c b03d 9d52 e2bd
00000260: f3d9 62bd 357d 193e 77be 93bd c7a5 bcbd
00000270: fb50 013e eb4f 26be f5f8 9dbd fd15 1fbd
00000280: df90 203c a075 e9bc 47c1 2f3d 4f2a a5bc
00000290: 824b 01be 930c 0ebd 49b4 123e d855 343e
000002a0: 3f7f b23d 52e2 bfbd 929c f23c e279 f03d
000002b0: 1367 703d cf0c 58bd fa2a a43d bc2b 2f3c
000002c0: 88d2 0abd 9dfe 62bd c5a3 173e 3817 25be
000002d0: 5097 e43d 3b3c 6d3d e2a5 b73d abd3 4c3d
000002e0: eaf4 083e faa8 98bd 3822 9bbd 8f55 02be
000002f0: 578b 143d 1adb 553d 9bf1 183d 4dce e4bd
00000300: adc0 3f3d 3863 b43c 484d 043e 1719 84bd
00000310: edc1 1fbc ab7d bfbd 47b9 f6bd cb7e 3f3d
00000320: a0cd d9bd 45fd 0f3e 97d0 3c3c d8df dc3d
00000330: cfab 40bd f583 d6bc fb98 31be afca 1bbe
00000340: facd ea3d db4a 04bc 427b 7d3c d697 9dbd
00000350: ea7d 8ebd afde e5bd d284 403d f24e 90bd
00000360: 4f41 18be 6f4a 5abd 137c 173d 19e1 a0bd
00000370: 013e 473b f5d4 ca3d cfec 733d 5f03 893d
00000380: f817 a63d e2e7 d5bd c7eb 2c3d 134e 163d
00000390: fb17 24bc 3222 19be 2fb0 dabd 7e40 a03d
000003a0: 7bf3 e2bd 5ae3 f0bc 2af9 7cbd 0747 a8bb
000003b0: a72e bcbd fe2a 23be bf5a 5bbd caa7 2bbd
000003c0: 025c fcbc 9083 1d3e 6f19 2cbd a773 14bd
000003d0: 85c5 a93c e9ce 2cbe 9f10 313e 27ff 953d
000003e0: 3394 a7bc 038f 473d e0ee 14be e25b 2f3e
000003f0: 33b9 083c f282 f53d d361 b33d f8a7 5b3d

encoder.layer_1.multihead.fc_Q.weight f4 [32, 32]
0.096546635 0.13794829 0.03292107 -0.008367553 -0.050436705 0.2662504 -0.18632019 0.14850326
0.077247225 0.22027418 0.23857076 0.3021789 0.12161451 0.012027239 0.074491896 -0.20369644
0.08896059 -0.048895173 -0.06007013 -0.20898622 0.06567044 -0.2565444 -0.027971458 0.00085630245
0.18780911 -0.21351862 0.04815196 -0.06610327 0.27979589 -0.1653981 0.14374286 -0.22698602
0.18013625 0.12778853 -0.0625768 0.14296621 0.042103704 0.0192289 0.06761744 0.033563133
0.2575388 0.0096607115 0.013700179 0.11154907 -0.03473266 0.1521615 0.18504521 0.10369306
-0.24504565 -0.1578756 0.017284598 -0.23969772 0.18621697 -0.2001117 -0.023230337 -0.11641238
0.052636154 -0.22270618 0.110285126 -0.053570133 0.22716808 0.08170377 0.02647171 -0.18845542
-0.08319491 -0.19470645 -0.04660157 -0.11988854 -0.07008511 -0.21697451 -0.070804074 0.10976849
0.049878757 0.05868179 -0.17112777 -0.1356424 -0.009329341 0.0038984185 -0.25490013 -0.07731699
0.06367492 -0.01551708 0.07823366 0.19345328 -0.010498135 0.048586547 -0.22157925 0.0133277
0.037888985 0.15247633 -0.099076554 -0.06443878 -0.24446812 0.08171956 -0.25960037 0.2118377
0.05197946 0.052757394 -0.09611924 0.07715594 -0.18530154 0.04914668 -0.09294571 -0.1024739
-0.00496254 -0.21200788 -0.11865524 -0.1704955 -0.08899662 -0.112070575 0.1028665 0.0013445766
-0.12066541 -0.10053909 0.099789746 0.16887212 -0.08180878 0.08706638 -0.12343974 -0.11748561
-0.057087194 -0.015614584 0.15543924 -0.082241915 0.039394666 0.01260077 -0.010696574 0.1306153
0.27117395 -0.03169224 0.120809436 -0.021714766 0.057323277 0.052060395 0.20134142 -0.019464256
-0.06537226 0.24975346 -0.13436007 0.16787569 0.19743116 0.015906395 0.07922819 -0.041110024
-0.21250153 -0.08184287 -0.09073292 -0.16908225 -0.057489954 -0.20729151 0.25988588 -0.112741835
0.2894704 -0.2440401 0.2606147 -0.03982401 0.0072640744 -0.044258606 0.12274428 -0.18804438
-0.044273958 0.05181624 -0.017932469 -0.023831012 0.08216253 -0.12473258 -0.14605467 -0.08910483
0.09116032 -0.14112544 0.1121534 0.09717832 -0.13419373 -0.15664388 0.107043624 0.19281146
0.11141554 0.16881591 -0.046622306 0.21394683 -0.11443054 0.15080677 -0.0982821 0.04226841
-0.077804804 -0.07077831 -0.20748311 0.20792145 0.027194247 0.24033277 0.06381003 -0.040915307
0.15178162 -0.027579574 -0.059230078 0.062366687 -0.021868171 0.003575709 0.18024863 -0.17108205
-0.038509656 0.08011397 -0.16416268 -0.12536676 0.07259639 0.021440912 -0.04536345 0.019033687
0.10100901 0.0055262055 -0.09926789 -0.040085226 0.13223383 0.0060241795 -0.12563527 -0.06220617
0.14617282 -0.1408793 0.092752315 -0.18752784 0.10010058 -0.08617933 0.10436162 0.12860432
0.041466996 0.13294508 -0.16838641 -0.15925252 -0.11236976 -0.010526195 0.13160206 0.105025075
0.017689975 -0.14883848 -0.009520191 -0.16550712 0.20692112 0.101683125 -0.1094208 0.1703197
0.044127654 0.19751704 -0.057101164 0.13392277 -0.016852014 0.029233467 0.03567861 -0.1144239
0.10985971 -0.08477458 0.088223994 -0.10057465 -0.0435321 0.055880874 -0.08864311 -0.080478854
00000000: 3eba c53d 5142 0d3e 3ed8 063d 1018 09bc
00000010: b896 4ebd f951 883e b8ca 3ebe 3d11 183e
00000020: cb33 9e3d 8e8f 613e e54b 743e 31b7 9a3e
00000030: 0711 f93d e60d 453c 358f 983d cd95 50be
00000040: f830 b63d 4e46 48bd 190c 76bd 7c00 56be
00000050: 397e 863d ca59 83be 6624 e5bc 7c79 603a
00000060: 0851 403e a0a4 5abe fd3a 453d 2761 87bd
00000070: 6841 8f3e 1f5e 29be 5431 133e 066f 68be
00000080: a375 383e ffda 023e 4428 80bd bc65 123e
00000090: ef74 2c3d ed85 9d3c 037b 8a3d 7f79 093d
000000a0: 20dc 833e f647 1e3c b776 603c d773 e43d
000000b0: d543 0ebd 39d0 1b3e 7e7c 3d3e 075d d43d
000000c0: 3fed 7abe 24aa 21be 6e98 8d3c 5273 75be
000000d0: a9af 3e3e 15ea 4cbe 8c4d bebc 9d69 eebd
000000e0: 0299 573d 170d 64be 2bdd e13d 5b6c 5bbd
000000f0: c09e 683e 4e54 a73d 33db d83c 75fa 40be
00000100: 1862 aabd 2161 47be 4ae1 3ebd 1f88 f5bd
00000110: c888 8fbd 912e 5ebe ba01 91bd 4dce e03d
00000120: ab4d 4c3d 515c 703d 1e3c 2fbe d7e5 0abe
00000130: 18da 18bc 9c7c 7f3b 4582 82be 5f58 9ebd
00000140: ff67 823d 5a3b 7ebc f838 a03d 9e18 463e
00000150: 5f00 2cbc b002 473d ace5 62be 6d5c 5a3c
00000160: 7b31 1b3d c122 1c3e a6e8 cabd 7bf8 83bd
00000170: da55 7abe 965c a73d 57ea 84be fbeb 583e
00000180: 6ae8 543d 2318 583d 2ada c4bd ef03 9e3d
00000190: b0bf 3dbe 074e 493d 525a bebd d6dd d1bd
000001a0: ce9c a2bb 9818 59be 8501 f3bd 5f96 2ebe
000001b0: dc43 b6bd 4285 e5bd acab d23d 813c b03a
000001c0: 6d1f f7bd 70e7 cdbd 915e cc3d d0ec 2c3e
000001d0: 5d8b a7bd dc4f b23d f9cd fcbd 4c9c f0bd
000001e0: 43d4 69bd 50d4 7fbc 772b 1f3e 736e a8bd
000001f0: 4d5c 213d 7673 4e3c af40 2fbc 04c0 053e
00000200: 50d7 8a3e b9cf 01bd f06a f73d 2ae3 b1bc
00000210: d0cb 6a3d 483d 553d 722c 4e3e 8173 9fbc
00000220: e4e1 85bd 5fbf 7f3e b095 09be 9be7 2b3e
00000230: 652b 4a3e 214e 823c 6442 a23d fc62 28bd
00000240: 009a 59be 3c9d a7bd 2ed2 b9bd e623 2dbe
00000250: 967a 6bbd 3a44 54be c30f 853e 31e5 e6bd
00000260: 7735 943e a6e5 79be 4a6f 853e 801e 23bd
00000270: 7907 ee3b 8348 35bd 5a61 fb3d b58e 40be
00000280: 9c58 35bd 443d 543d 1de7 92bc 4139 c3bc
00000290: d444 a83d cb73 ffbd 5b8f 15be 987c b6bd
000002a0: 43b2 ba3d 3083 10be afb0 e53d 6d05 c73d
000002b0: 156a 09be 4167 20be b039 db3d 5e70 453e
000002c0: d52d e43d 14de 2c3e 08f7 3ebd e114 5b3e
000002d0: 8f5a eabd 176d 1a3e 2048 c9bd a421 2d3d
000002e0: 2058 9fbd 38f4 90bd 7476 54be 5ce9 543e
000002f0: 78c6 de3c cb19 763e d5ae 823d cf96 27bd
00000300: a46c 1b3e 8fee e1bc 3d9b 72bd 3674 7f3d
00000310: e124 b3bc 7156 6a3b 1993 383e 2230 2fbe
00000320: 4dbc 1dbd cb12 a43d 431a 28be 2560 00be
00000330: 6bad 943d daa4 af3c 06cf 39bd 89ec 9b3c
00000340: d0dd ce3d 2c15 b53b f74c cbbd 6830 24bd
00000350: 4e68 073e 7b66 c53b 88a6 00be e6cb 7ebd
00000360: 54ae 153e aa42 10be edf4 bd3d 4c07 40be
00000370: 8801 cd3d ca7e b0bd 8cbb d53d dab0 033e
00000380: 4cd9 293d c122 083e 7d6d 2cbe 1813 23be
00000390: 1e22 e6bd 1076 2cbc b1c2 063e 6317 d73d
000003a0: 91ea 903c 1d69 18be 93fa 1bbc b37a 29be
000003b0: 21e3 533e 3e3f d03d 0318 e0bd 4a68 2e3e
000003c0: 33bf 343d e841 4a3e e9e2 69bd 0d23 093e
000003d0: 3c0d 8abc 067b ef3c bc23 123d 1457 eabd
000003e0: 21fe e03d 4c9e adbd c8ae b43d 15fa cdbd
000003f0: b74e 32bd 58e3 643d 858a b5bd 19d2 a4bd

encoder.layer_1.multihead.fc_Q.bias f4 [32]
-0.013526166 -0.18606202 -0.02351184 0.14725918 0.008875197 0.04937883 0.07094373 -0.09084929
-0.06674339 -0.056243435 -0.122239724 -0.08267333 0.014180465 -0.0125710815 0.10943957 -0.047488466
-0.14980738 -0.21672791 -0.10925904 0.13667256 -0.14564869 -0.18557993 -0.14143656 0.08437941
0.16589816 0.08194874 0.037050202 -0.11418036 0.0021163304 0.13974373 0.22011201 -0.14132194
00000000: da9c 5dbc 0b87 3ebe e79b c0bc 1ccb 163e
00000010: 4669 113c 7541 4a3d f24a 913d 310f babd
00000020: c2b0 88bd 845f 66bd d258 fabd a350 a9bd
00000030: 2e55 683c f0f6 4dbc da21 e03d 4483 42bd
00000040: 1b67 19be eced 5dbe 34c3 dfbd e4f3 0b3e
00000050: ee24 15be aa08 3ebe bfd4 10be 1dcf ac3d
00000060: 35e1 293e bed4 a73d f4c1 173d 65d7 e9bd
00000070: 22b2 0a3b fb18 0f3e 0b65 613e b3b6 10be

encoder.layer_1.multihead.fc_K.weight f4 [32, 32]
0.15448117 -0.19129024 -0.058098257 0.00011523065 0.0645823 -0.041142594 0.029761858 -0.00298251
0.04482645 0.12889008 0.11652401 -0.0154721765 -0.16801053 0.122778386 -0.09626625 -0.04281075
-0.0783031 -0.18064526 0.28882506 0.37928784 0.29266298 0.059623886 0.028169649 0.31957504
-0.18532373 0.22781599 -0.083275154 -0.27873793 -0.24225111 -0.2653647 -0.26983285 0.29553026
0.09399167 -0.0663748 0.042200666 -0.013768869 0.05316826 0.12708567 -0.09087751 -0.015878523
0.030793626 -0.027955027 0.121647485 0.112942465 -0.10612766 0.08010696 0.046740316 -0.0456407
-0.12516691 -0.15563759 0.02186995 0.075175576 0.28881237 0.08979576 0.11206091 0.13238828
-0.15501934 0.21822074 -0.01928892 -0.14448428 -0.27147186 -0.208163 -0.2915951 0.25280264
0.067425236 0.25804973 0.030201985 0.0053265747 -0.18148933 -0.018772105 0.10328276 -0.020855209
-0.04608401 -0.10004374 -0.20741412 -0.11433704 0.019740732 -0.022785187 -0.10425174 0.034110274
0.06577315 0.2122987 -0.14491378 -0.033300605 -0.09766674 0.050786585 -0.10178299 0.10353851
0.14981882 -0.047170147 0.41035536 0.29201263 0.2117996 0.25183305 0.12941177 -0.08159481
-0.056053694 0.16556232 0.10739205 0.015040199 -0.14853053 -0.07993869 0.110793404 -0.21136636
-0.015532956 0.03766159 -0.13128427 0.21113606 -0.04241093 0.15124118 -0.028089061 0.10682187
-0.094664685 0.18739355 -0.08284998 -0.13188161 -0.16054773 0.20088053 -0.033960987 -0.047209434
-0.19417463 -0.1560653 0.2216581 -0.005242636 -0.13326533 0.08362486 0.25434822 -0.14571793
0.09808201 -0.2204783 -0.048224255 0.117905416 0.0002636207 0.057647604 -0.11035157 -0.02006849
0.11323345 -0.007130672 0.18804012 0.08065974 0.049948666 -0.04634272 0.17725465 0.2905208
-0.014030831 -0.029352339 0.094539575 0.06639177 0.026248172 -0.17365219 0.3397349 0.054615237
0.083929054 0.15289328 -0.22867145 -0.3376896 -0.01263448 -0.43939224 -0.34110776 0.3146935
0.046008322 -0.08835548 -0.035354435 -0.024269471 -0.08597239 -0.00760043 0.22591281 -0.020427635
0.07914177 0.02814759 0.16288479 0.103895284 0.058498807 -0.110452324 -0.09491196 0.0068503483
0.20143385 0.12165922 -0.17776155 -0.24357142 -0.14443061 -0.040770426 -0.11498176 -0.21254767
0.14206132 -0.1283128 0.08448878 0.021333065 0.020003395 0.32683226 0.20871182 -0.16640455
-0.12515336 -0.22262393 0.042595603 -0.068301745 -0.05379156 0.114649124 -0.12888627 0.031264808
0.07524965 0.16673823 0.025329428 0.015423293 0.09622031 0.15206893 -0.018137695 0.2375538
-0.19077934 -0.22525191 0.19655375 0.15974344 -0.041378707 -0.14221594 0.0019154844 0.16177417
0.06724385 0.21646564 -0.09572495 -0.23687035 -0.008841477 -0.20256492 -0.26285687 0.25946426
-0.18195315 0.12866542 -0.002536477 0.11874226 -0.1688572 0.18029906 -0.04249908 0.12991418
-0.15619814 -0.11201522 -0.113702595 -0.09206218 0.10021787 0.16758992 0.06571819 0.018976774
0.10970738 0.13669293 0.020231456 0.21683687 -0.013705974 -0.12864017 0.016632978 0.14123969
-0.16091111 0.032039776 -0.23529203 -0.22928752 0.10569715 -0.15395285 -0.04468229 0.23796384
00000000: 5030 1e3e 97e1 43be 70f8 6dbd fca7 f138
00000010: ba43 843d 2385 28bd 24cf f33c 3776 43bb
00000020: f19b 373d c3fb 033e 24a4 ee3d 037f 7dbc
00000030: f40a 2cbe 3c73 fb3d 3d27 c5bd 535a 2fbd
00000040: 605d a0bd 12fb 38be e1e0 933e 0432 c23e
00000050: ecd7 953e 2d38 743d 09c4 e63c 579f a33e
00000060: 81c5 3dbe 9848 693e 2a8c aabd bdb6 8ebe
00000070: ad10 78be e2dd 87be 8827 8abe be4f 973e
00000080: b47e c03d 83ef 87bd 9bda 2c3d d396 61bc
00000090: f6c6 593d bf22 023e fd1d babd ad13 82bc
000000a0: ea42 fc3c f101 e5bc 5122 f93d 614e e73d
000000b0: 7559 d9bd 1e0f a43d c672 3f3d bef1 3abd
000000c0: c12b 00be 765f 1fbe 9c28 b33c a7f5 993d
000000d0: 37df 933e d7e6 b73d 3180 e53d cb90 073e
000000e0: 64bd 1ebe 4275 5f3e cc03 9ebc b0f3 13be
000000f0: 5cfe 8abe ae28 55be f44b 95be 596f 813e
00000100: 3e16 8a3d 181f 843e 276a f73c 8c8a ae3b
00000110: 57d8 39be f5c7 99bc e985 d33d 8bd8 aabc
00000120: 96c2 3cbd bbe3 ccbd 5e64 54be 8a29 eabd
00000130: 51b7 a13c 00a8 babc f081 d5bd 37b7 0b3d
00000140: 13b4 863d d564 593e 4764 14be 3766 08bd
00000150: 8005 c8bd 9805 503d 9a73 d0bd 000c d43d
00000160: 1b6a 193e 7c35 41bd 191a d23e ae82 953e
00000170: ffe1 583e 43f0 803e 8584 043e 2e1b a7bd
00000180: 8f98 65bd 2b89 293e 5df0 db3d 2b6b 763c
00000190: 6318 18be e5b6 a3bd a7e7 e23d 6c70 58be
000001a0: f17d 7ebc 0a43 1a3d 626f 06be 0d34 583e
000001b0: 15b7 2dbd f8de 1a3e 081b e6bc 6dc5 da3d
000001c0: 8fdf c1bd 18e4 3f3e 40ad a9bd f90b 07be
000001d0: a066 24be a0b3 4d3e ad1a 0bbd ae5e 41bd
000001e0: b7d5 46be 95cf 1fbe 57fa 623e 6bca abbb
000001f0: b576 08be 8343 ab3d ee39 823e 1537 15be
00000200: 39df c83d 10c5 61be cc86 45bd 6578 f13d
00000210: 9236 8a39 e51f 6c3d 0100 e2bd ad66 a4bc
00000220: f0e6 e73d 6aa8 e9bb 978d 403e ef30 a53d
00000230: f996 4c3d ddd1 3dbd 3e82 353e 24bf 943e
00000240: 92e1 65bc 5174 f0bc f79d c13d 69f8 873d
00000250: 6806 d73c e1d1 31be bcf1 ad3e 3ab4 5f3d
00000260: ffe2 ab3d 0e90 1c3e d928 6abe a7e5 acbe
00000270: da00 4fbc 05f8 e0be ada5 aebe 821f a13e
00000280: 3973 3c3d b8f3 b4bd d0cf 10bd c5d0 c6bc
00000290: 4b12 b0bd 070d f9bb b055 673e db57 a7bc
000002a0: 1515 a23d c695 e63c 45cb 263e 0dc7 d43d
000002b0: 729c 6f3d d434 e2bd 3461 c2bd e378 e03b
000002c0: ad44 4e3e 7828 f93d 2007 36be c96a 79be
000002d0: 9ee5 13be e4fe 26bd 8f7b ebbd 19a6 59be
000002e0: 8678 113e 6e64 03be 7408 ad3d aec2 ae3c
000002f0: 29de a33c 8f56 a73e 8db8 553e f465 2abe
00000300: 3428 00be 87f7 63be ba78 2e3d c9e1 8bbd
00000310: 8a54 5cbd 29cd ea3d c3fa 03be 870f 003d
00000320: 7d1c 9a3d 6dbd 2a3e a97f cf3c fbb1 7c3c
00000330: 270f c53d f5b7 1b3e 8195 94bc 4e41 733e
00000340: a95b 43be 70a8 66be 6345 493e c993 233e
00000350: b87c 29bd 0ea1 11be fe10 fb3a 21a8 253e
00000360: 25b7 893d 2ba9 5d3e 710b c4bd 248e 72be
00000370: d8db 10bc 2e6d 4fbe 2d95 86be 80d8 843e
00000380: ed51 3abe dec0 033e 063b 26bb 242f f33d
00000390: e7e8 2cbe 51a0 383e 8413 2ebd 3908 053e
000003a0: 68f2 1fbe 3c68 e5bd e8dc e8bd 198b bcbd
000003b0: 073f cd3d b19c 2b3e 4297 863d 2e75 9b3c
000003c0: 43ae e03d 3bf9 0b3e 70bc a53c 7c0a 5e3e
000003d0: 068f 60bc 40ba 03be e241 883c 23a1 103e
000003e0: e2c5 24be 243c 033d 65f0 70be 59ca 6abe
000003f0: bf77 d83d d1a5 1dbe c704 37bd cbac 733e

encoder.layer_1.multihead.fc_K.bias f4 [32]
-0.098559156 -0.14394715 0.11613188 -0.023368267 -0.08407067 0.15133753 -0.041933995 -0.10554302
0.15323552 -0.040743843 0.06460915 -0.020464657 0.16356912 -0.06836313 -0.13201238 -0.14726776
0.099732466 0.15342563 -0.102958664 0.036433227 -0.10784308 0.10803358 -0.08204724 0.015676117
-0.13974608 0.14928906 0.16483693 -0.15574938 -0.09089835 0.08524313 0.105285555 -0.15270042
00000000: 62d9 c9bd e266 13be 8dd6 ed3d cf6e bfbc
00000010: 3e2d acbd 3af8 1a3e fbc2 2bbd f026 d8bd
00000020: c6e9 1c3e 04e3 26bd cd51 843d 7fa5 a7bc
00000030: aa7e 273e f801 8cbd 412e 07be 5ccd 16be
00000040: 8940 cc3d 9c1b 1d3e fedb d2bd 023b 153d
00000050: d5dc dcbd b640 dd3d 6208 a8bd 336b 803c
00000060: 9919 0fbe 3bdf 183e 03cb 283e c47c 1fbe
00000070: ea28 babd f393 ae3d f49f d73d 805d 1cbe

encoder.layer_1.multihead.fc_V.weight f4 [32, 32]
0.06553239 0.014832945 0.075017475 -0.23959179 -0.09434032 0.09950877 -0.14033079 -0.15404238
0.15442985 -0.07834411 -0.0151448315 0.019407438 -0.15632072 0.15949097 -0.16820477 -0.005638887
0.06900578 0.11392783 0.05848795 0.005873553 -0.014909792 -0.083237186 0.065425046 0.13955832
-0.045783453 -0.13709378 0.058907915 0.106461845 -0.12771982 0.121278815 0.1735841 0.11551049
0.010151943 -0.034724064 0.06700765 -0.0072648334 0.062095355 -0.11372899 0.15698013 0.16177185
0.07643505 -0.08639253 -0.17184106 -0.21161291 0.027228294 -0.0068576746 0.15374677 0.12107915
-0.12948012 0.013030101 0.18185212 -0.0604422 0.22091836 -0.12596445 0.069094665 0.20823179
-0.2658084 -0.06675255 -0.11842921 -0.16666715 -0.05666696 -0.145231 0.1500016 -0.050857827
0.16584523 -0.0053441976 0.16372648 -0.07447006 -0.071389295 -0.03037997 0.122524366 0.12452912
0.102817684 0.10482221 -0.039347127 -0.16174996 0.09713096 0.14626358 0.0694137 -0.17466883
-0.030562611 -0.089833505 -0.016041962 -0.12004747 -0.034082312 -0.13246761 -0.17358178 0.058458015
-0.07304972 0.024073139 0.08031015 -0.07267528 -0.0934928 0.18639787 -0.062593035 0.18098739
-0.056415677 -0.09350065 -0.08612504 0.028220441 -0.023388455 0.16033846 -0.11063122 -0.118092775
-0.21169199 0.10118976 0.09875249 0.04821468 0.10700026 0.16567731 0.033579003 -0.034269545
-0.098623544 -0.17343132 0.13685128 0.16621387 -0.074587256 -0.09439873 -0.08394183 -0.038515247
-0.060176816 0.17777194 -0.22060838 -0.07120745 0.0803381 0.018333605 -0.1867408 -0.10379153
-0.117939316 -0.1800355 0.12518129 0.0699351 -0.10434119 -0.00077096216 0.055504426 0.038379166
-0.108703636 -0.05465151 0.10946725 0.06621269 0.026678806 0.16625491 0.023760093 -0.07113572
-0.01579495 0.06359455 0.17464717 -0.008712198 -0.109248295 0.045644186 0.11563885 0.02139007
-0.083842136 -0.102312 0.05099148 0.13940312 0.12840407 -0.14738609 -0.08885836 0.016665647
-0.15332435 -0.20812953 -0.08392548 0.10867108 0.14349774 0.051318433 -0.12684591 0.0064565795
-0.0463353 0.13477623 0.039704457 0.15995531 0.18074895 -0.086840875 0.13187034 -0.039088618
0.11587392 -0.034010325 -0.008155913 0.034244847 -0.05649043 -0.1187294 -0.24160866 -0.006978962
-0.114568315 -0.038666014 -0.03652487 0.20317462 -0.058224928 0.19700319 0.04040224 -0.08368667
0.103079356 -0.10703172 -0.02020932 0.109484196 -0.12270555 0.19974427 -0.03965958 -0.038775187
0.06487536 -0.13680603 -0.14669096 0.034042373 0.09153302 0.0075288313 -0.06627814 -0.14225036
0.16288291 0.025374735 -0.003497912 -0.13004057 -0.034800623 0.07198697 -0.077493265 0.14022297
-0.14092092 -0.118607596 -0.07108816 0.12680009 -0.0031677508 0.18375325 -0.07712673 -0.19371395
0.008870983 0.1585617 0.06710215 -0.1827925 -0.14352092 0.090621196 0.07457752 0.028209679
0.08950465 -0.1997426 0.11231222 0.06697061 -0.16728406 0.11565674 0.0020020027 0.038307615
0.11776266 0.11253946 -0.071444124 0.08575588 0.030229665 0.16811629 0.0664051 0.16148831
-0.06714998 0.026779512 -0.069112636 -0.14743029 -0.120853625 -0.055451393 -0.03407407 -0.14902154
00000000: d835 863d e105 733c c3a2 993d 8d57 75be
00000010: 7f35 c1bd 41cb cb3d e0b2 0fbe 49bd 1dbe
00000020: dc22 1e3e e072 a0bd 0722 78bc 59fc 9e3c
00000030: 8a12 20be 9a51 233e df3d 2cbe 6ac6 b8bb
00000040: e752 8d3d fe52 e93d 1091 6f3d ef76 c03b
00000050: 3348 74bc 4278 aabd 91fd 853d 60e8 0e3e
00000060: 6e87 3bbd 5062 0cbe 6d49 713d ab08 da3d
00000070: fcc8 02be 0761 f83d 08c0 313e c490 ec3d
00000080: 5654 263c d23a 0ebd 4f3b 893d d70d eebb
00000090: b357 7e3d bfea e8bd 66bf 203e 85a7 253e
000000a0: fb89 9c3d 91ee b0bd 1af7 2fbe 0eb1 58be
000000b0: df0d df3c 58b6 e0bb cb6f 1d3e 58f8 f73d
000000c0: 7096 04be 347c 553c 7137 3a3e 3e92 77bd
000000d0: 6c38 623e d3fc 00be 8181 8d3d b73a 553e
000000e0: 0a18 88be 90b5 88bd 038b f2bd cbaa 2abe
000000f0: 9d1b 68bd 6fb7 14be 059a 193e 4c50 50bd
00000100: 55d3 293e 611e afbb eaa7 273e c283 98bd
00000110: 8d34 92bd 6adf f8bc 0eee fa3d 2009 ff3d
00000120: 1492 d23d 07ad d63d 742a 21bd c8a1 25be
00000130: 99ec c63d 1fc6 153e c528 8e3d 63dc 32be
00000140: 715e fabc a1fa b7bd 6f6a 83bc 73db f5bd
00000150: e599 0bbd 97a5 07be 6cbf 31be ac71 6f3d
00000160: 179b 95bd 0835 c53c a679 a43d c7d6 94bd
00000170: 2779 bfbd 15df 3e3e c730 80bd c254 393e
00000180: 2014 67bd 457d bfbd 5362 b0bd 8e2e e73c
00000190: 2599 bfbc c42f 243e 9f92 e2bd a0da f1bd
000001a0: c9c5 58be 943c cf3d bf3e ca3d c27c 453d
000001b0: f422 db3d 50a7 293e 238a 093d 395e 0cbd
000001c0: 24fb c9bd fb97 31be be22 0c3e f833 2a3e
000001d0: 34c1 98bd 1f54 c1bd b2e9 abbd 2ac2 1dbd
000001e0: f77b 76bd d909 363e 2ae7 61be 36d5 91bd
000001f0: 4d88 a43d 5b30 963c fb38 3fbe a790 d4bd
00000200: 2b8a f1bd 3a5b 38be 862f 003e 223a 8f3d
00000210: d5b0 d5bd 651a 4aba 9c58 633d 7933 1d3d
00000220: 03a0 debd 43da 5fbd 5e30 e03d 859a 873d
00000230: 838d da3c ba3e 2a3e 87a4 c23c 9baf 91bd
00000240: 6964 81bc dc3d 823d b5d6 323e 9bbd 0ebc
00000250: 92bd dfbd 66f5 3a3d 10d4 ec3d 3a3a af3c
00000260: 6db5 abbd f488 d1bd 71dc 503d b1bf 0e3e
00000270: 5b7c 033e 61ec 16be 5ffb b5bd 6586 883c
00000280: 0f01 1dbe e81f 55be 1fe1 abbd f18e de3d
00000290: 12f1 123e 4733 523d e5e3 01be b791 d33b
000002a0: 15ca 3dbd c802 0a3e 24a1 223d 53cb 233e
000002b0: 4116 393e a1d9 b1bd 0509 073e 631b 20bd
000002c0: 4e4f ed3d 694e 0bbd 61a0 05bc 5344 0c3d
000002d0: 8262 67bd 6628 f3bd 4368 77be c7af e4bb
000002e0: cba2 eabd 4160 1ebd 1a9b 15bd 020d 503e
000002f0: 437d 6ebd 34bb 493e d27c 253d eb63 abbd
00000300: 451b d33d 7233 dbbd 048e a5bc 4039 e03d
00000310: 0c4d fbbd c389 4c3e 1572 22bd bbd2 1ebd
00000320: 5fdd 843d e116 0cbe 2836 16be 0470 0b3d
00000330: aa75 bb3d 6ab4 f63b d5bc 87bd 14aa 11be
00000340: c7ca 263e adde cf3c 3a3d 65bb 5b29 05be
00000350: 198b 0ebd e86d 933d cab4 9ebd 9c96 0f3e
00000360: 934d 10be 8ae8 f2bd ab96 91bd e2d7 013e
00000370: 0a9a 4fbb d029 3c3e 9ef4 9dbd f35c 46be
00000380: 9957 113c 005e 223e da6c 893d f52d 3bbe
00000390: 26f7 12be 9b97 b93d 19bc 983d fc17 e73c
000003a0: 374e b73d 5389 4cbe f303 e63d e327 893d
000003b0: 834c 2bbe 71dd ec3d 0834 033b 72e8 1c3d
000003c0: 8d2d f13d 177b e63d 4c51 92bd c7a0 af3d
000003d0: 34a4 f73c ad26 2c3e 66ff 873d 315d 253e
000003e0: ee85 89bd b560 db3c ed8a 8dbd f7f7 16be
000003f0: 1b82 f7bd 0021 63bd 4191 0bbd 1a99 18be

encoder.layer_1.multihead.fc_V.bias f4 [32]
-0.1275606 -0.050522648 -0.15818116 0.039434172 0.06890282 -0.14693306 0.13806283 -0.08799649
-0.05422416 0.022319572 -0.12059374 0.15353051 -0.16713016 0.0765506 -0.040500183 -0.08946364
0.15315893 0.11910558 0.070786715 0.062314134 -0.01525536 -0.115871206 -0.0851008 -0.12432534
0.08295508 -0.11236293 0.17376636 0.2004613 0.08670632 0.01845428 -0.15094452 -0.099290185
00000000: 3f9f 02be d6f0 4ebd 3efa 21be ba85 213d
00000010: ec1c 8d3d 9f75 16be 5860 0d3e 8137 b4bd
00000020: 271a 5ebd 89d7 b63c daf9 f6bd 1a37 1d3e
00000030: 2b24 2bbe 90c6 9c3d 85e3 25bd b638 b7bd
00000040: b2d5 1c3e a0ed f33d a0f8 903d 1b3d 7f3d
00000050: 9ef1 79bc e24d edbd 5449 aebd 499e febd
00000060: 5ae4 a93d 891e e6bd cfef 313e ba45 4d3e
00000070: 1593 b13d 6e2d 973c 3391 1abe a758 cbbd

encoder.layer_1.multihead.fc_out.weight f4 [32, 32]
-0.01591455 0.023868365 -0.20140931 0.02245131 -0.08519382 0.13209298 -0.20671806 0.049918164
0.006538457 0.17821214 0.16294186 -0.018233228 -0.09987931 0.10202699 0.14077927 0.017291628
0.18457775 -0.09809884 -0.1264841 -0.2659515 0.01713957 -0.05379488 0.074961424 0.18598107
-0.14859094 -0.16708879 0.15995425 0.14156514 0.0051361816 0.14204383 -0.1887092 0.13905607
0.08634902 -0.15037328 0.08593894 0.01330548 -0.10693538 -0.21445215 -0.053089485 -0.00546331
0.07009396 -0.19360648 -0.031253476 -0.035550352 -0.1242926 0.15977022 0.05437353 0.024596168
0.053089783 -0.11605311 0.1406984 0.004577739 -0.084765576 0.0139305 -0.19821803 -0.03610787
0.07093553 -0.14581783 0.00535186 -0.15141451 0.005340355 -0.010136439 0.13886593 0.17940354
-0.015204585 -0.16217712 -0.06130725 -0.19160882 0.053963926 0.14238195 0.015098447 -0.044384845
-0.07250277 0.12505105 0.103051156 -0.11769285 0.14319497 0.10340845 -0.12808605 -0.17389925
-0.020600254 0.16560715 0.03304768 -0.18238218 -0.014084283 -0.20616993 0.16342115 0.054275785
0.083819345 0.05008672 -0.044285823 0.16417101 -0.16772312 0.028599955 0.105423324 -0.0871117
-0.18119161 -0.17154449 -0.09644148 -0.067352794 -0.08390827 0.15573834 0.14912795 -0.09858377
-0.09828353 0.060884796 0.11292937 -0.096192144 0.114896215 -0.048926946 0.011487552 0.09619633
0.1044755 -0.10646352 0.10945474 -0.046882086 0.063977905 0.049279492 -0.09638341 -0.20053086
0.097196795 -0.0025779812 0.16053654 -0.015109827 -0.11748106 0.028818361 -0.053479128 -0.10745425
-0.022526108 -0.02569206 0.04244207 -0.142832 -0.12821135 -0.010260813 -0.06778884 0.13212265
0.21296163 0.08886643 -0.028628457 -0.1659949 -0.16382007 0.054798745 0.1637621 -0.004567106
0.17184542 0.1407171 -0.19453798 -0.17596784 -0.10797859 -0.107244216 0.047801446 0.20277262
0.22574924 0.028855544 -0.14502372 -0.05460755 -0.079799734 -0.104930796 0.10784262 0.17833254
-0.051271666 -0.081825346 0.029617157 0.1403273 -0.12997149 -0.012346838 0.14113806 -0.024483368
-0.057186354 -0.050195295 0.078513175 0.14227541 -0.0064737187 -0.089009546 0.04918588 -0.12304065
-0.013493023 0.11343892 -0.21013238 0.0006739604 -0.032170754 -0.01157494 0.077739164 0.121539935
-0.02959472 -0.16991526 -0.04839529 -0.20381871 -0.09085752 0.0672119 -0.058716368 0.07503554
0.05259169 0.1543986 -0.09819922 0.07068355 0.03762133 -0.056912918 0.17477131 0.17351806
-0.08111094 -0.15141355 -0.12901194 -0.0054177414 -0.17650646 0.113916874 -0.003651946 0.07649509
-0.05168022 0.11803241 -0.16823411 0.08272712 -0.19636902 0.032634072 -0.026361952 0.06829451
0.05808251 -0.04113394 0.046390034 0.30426335 0.1177815 0.022827648 -0.00362987 0.0022913248
0.049931157 0.07238762 -0.045221396 -0.05778768 -0.06644888 0.21274628 0.09083333 0.21846956
-0.08687809 0.033847783 0.0934745 -0.066247426 0.11860289 0.14782019 0.02754743 0.023004238
-0.117113546 0.13846055 0.024068594 -0.15953271 0.11166122 0.07918976 -0.019824648 -0.005484796
-0.11842914 -0.07077406 0.09654012 0.10543075 0.17399152 -0.15175122 0.08267828 -0.17304051
00000000: 3b5f 82bc 9787 c33c 3e3e 4ebe cfeb b73c
00000010: 197a aebd 6243 073e e6ad 53be fd76 4c3d
00000020: 8d40 d63b 3e7d 363e 3bda 263e da5d 95bc
00000030: 868d ccbd 87f3 d03d 7128 103e 2ca7 8d3c
00000040: f301 3d3e 0be8 c8bd 0c85 01be cc2a 88be
00000050: 4968 8c3c 0558 5cbd 6085 993d d271 3e3e
00000060: 3928 18be 5319 2bbe 0ccb 233e 74f6 103e
00000070: 6a4d a83b f073 113e fc3c 41be b764 0e3e
00000080: c1d7 b03d 74fb 19be c100 b03d 3aff 593c
00000090: f000 dbbd 5899 5bbe 5c74 59bd 9105 b3bb
000000a0: 6c8d 8f3d c740 46be a503 00bd 3f9d 11bd
000000b0: 1e8d febd ce9a 233e c7b6 5e3d e77d c93c
000000c0: ac74 593d 41ad edbd 3e13 103e dc00 963b
000000d0: 9399 adbd c03c 643c abf9 4abe d9e5 13bd
000000e0: a646 913d 4551 15be a85e af3b 680c 1bbe
000000f0: 25fe ae3b 4f13 26bc df32 0e3e 90b5 373e
00000100: a71c 79bc c211 26be 501d 7bbd 1a35 44be
00000110: 4709 5d3d 93cc 113e 7a5f 773c e2cc 35bd
00000120: 557c 94bd 620d 003e 7c0c d33d f308 f1bd
00000130: b4a1 123e cfc7 d33d fd28 03be a512 32be
00000140: ddc1 a8bc ec94 293e 015d 073d 65c2 3abe
00000150: c4c1 66bc 361e 53be e057 273e 4950 5e3d
00000160: 7aa9 ab3d bc27 4d3d 0d65 35bd 721c 283e
00000170: 9cbf 2bbe 744a ea3c 2fe8 d73d 9e67 b2bd
00000180: 4b8a 39be 5ca9 2fbe 1c83 c5bd 43f0 89bd
00000190: 19d8 abbd df79 1f3e ffb4 183e 4ae6 c9bd
000001a0: e048 c9bd 5662 793d 8347 e73d 6300 c5bd
000001b0: b54e eb3d 9f67 48bd 4936 3c3c 9502 c53d
000001c0: 40f7 d53d 8c09 dabd cf29 e03d 6e07 40bd
000001d0: d906 833d 4bd9 493d aa64 c5bd f657 4dbe
000001e0: 1d0f c73d 59f3 28bb b163 243e 358f 77bc
000001f0: e999 f0bd 7c14 ec3c ee0c 5bbd f910 dcbd
00000200: ac88 b8bc 2878 d2bc bcd7 2d3d 8d42 12be
00000210: d649 03be f81c 28bc e0d4 8abd 294b 073e
00000220: 9d12 5a3e 9aff b53d 3a86 eabc 91fa 29be
00000230: 73c0 27be a674 603d 40b1 273e a9a7 95bb
00000240: 3ff8 2f3e 2518 103e f734 47be ea30 34be
00000250: e123 ddbd dba2 dbbd 73cb 433d a0a3 4f3e
00000260: cf2a 673e 7662 ec3c 1981 14be 2bac 5fbd
00000270: 0b6e a3bd f5e5 d6bd 97dc dc3d ce9c 363e
00000280: 3d02 52bd 0c94 a7bd ae9f f23c f6b1 0f3e
00000290: 3f17 05be 644a 4abc 7f86 103e 5891 c8bc
000002a0: 3d3c 6abd 9599 4dbd 84cb a03d a5b0 113e
000002b0: 7d21 d4bb a34a b6bd 2277 493d bcfc fbbd
000002c0: d711 5dbc aa52 e83d f12c 57be b8ac 303a
000002d0: 7bc5 03bd d1a4 3dbc b635 9f3d eee9 f83d
000002e0: a070 f2bc 44fe 2dbe 243a 46bd dab5 50be
000002f0: 8213 babd 65a6 893d 9380 70bd 3cac 993d
00000300: 626a 573d ab1a 1e3e ac1c c9bd 89c2 903d
00000310: d318 1a3d 851d 69bd 40f7 323e b8ae 313e
00000320: 7e1d a6bd 270c 1bbe b51b 04be 4f87 b1bb
00000330: 1cbe 34be 404d e93d 7d55 6fbb 75a9 9c3d
00000340: a3ae 53bd faba f13d 9045 2cbe d66c a93d
00000350: f614 49be 4eab 053d 05f5 d7bc fedd 8b3d
00000360: ede7 6d3d 107c 28bd 7a03 3e3d 68c8 9b3e
00000370: 6d37 f13d 0c01 bb3c 1de3 6dbb 0d2a 163b
00000380: 9d84 4c3d f63f 943d 123a 39bd c6b2 6cbd
00000390: 5a16 88bd 29da 593e d306 ba3d 7cb6 5f3e
000003a0: 24ed b1bd f9a3 0a3d 8f6f bf3d bbac 87bd
000003b0: 12e6 f23d 2d5e 173e 26ab e13c 6273 bc3c
000003c0: 3ad9 efbd 9ac8 0d3e 802b c53c 8b5c 23be
000003d0: a3ae e43d 3e2e a23d 4d67 a2bc ceb9 b3bb
000003e0: fa8a f2bd fef1 90bd d4b6 c53d 14ec d73d
000003f0: d52a 323e ac64 1bbe 3b53 a93d 8831 31be

encoder.layer_1.multihead.fc_out.bias f4 [32]
-0.12180236 0.08354503 -0.07337617 0.097438514 0.13510318 -0.05881988 -0.010870273 0.14163673
0.12793528 -0.17161874 0.098489 -0.04143264 -0.14289115 -0.09961321 0.07198109 0.11644148
-0.012576897 0.13494806 -0.13936903 0.06277731 -0.05329949 -0.1266913 0.10685932 0.015314416
-0.11378429 0.0075389496 0.11678937 -0.025275068 0.039062716 -0.04093241 -0.031985555 -0.20583005
00000000: 8473 f9bd a819 ab3d 3f46 96bd d88d c73d
00000010: 7d58 0a3e 1ded 70bd 3b19 32bc 3809 113e
00000020: 7701 033e d3bc 2fbe 9ab4 c93d 46b5 29bd
00000030: 0f52 12be 0302 ccbd d26a 933d df78 ee3d
00000040: 540f 4ebc d32f 0a3e c1b6 0ebe 6491 803d
00000050: 9150 5abd 5dbb 01be 0fd9 da3d 51e9 7a3c
00000060: bd07 e9bd 4b09 f73b 442f ef3d a90d cfbc
00000070: 3a00 203d bea8 27bd 4903 03bd 1dc5 52be

encoder.layer_1.multihead.norm.weight f4 [32]
1.0113105 1.0166118 0.9508533 1.0786332 0.97762513 1.0507913 1.0605416 1.0195771
1.0759593 0.9991185 1.0630106 1.0081719 1.0084167 0.9616006 1.0803466 1.0927435
1.0167986 1.0640862 1.0314248 1.059061 1.2118381 1.0121986 1.1159135 1.0018232
1.0510587 1.0100625 1.1107655 1.0470933 1.0749701 1.077022 1.0538572 1.0131398
00000000: 9f72 813f 5620 823f 1f6b 733f a710 8a3f
00000010: a445 7a3f 5480 863f d4bf 873f 8181 823f
00000020: 09b9 893f 3bc6 7f3f bb10 883f c70b 813f
00000030: cc13 813f 752b 763f cc48 8a3f 05df 8b3f
00000040: 7526 823f fa33 883f ba05 843f 508f 873f
00000050: 831d 9b3f b98f 813f 41d6 8e3f be3b 803f
00000060: 1789 863f ba49 813f 902d 8e3f 2707 863f
00000070: 9f98 893f dbdb 893f cbe4 863f 91ae 813f

encoder.layer_1.multihead.norm.bias f4 [32]
0.008130406 -0.0072950586 0.027724152 0.0120145315 -0.0038335924 -0.00083036645 0.012745494 0.01784856
0.027764622 0.006228128 -0.0059397905 -0.005161148 0.013860924 0.02201586 0.0050046197 0.03291561
-0.01766371 -0.009896959 0.0015493387 0.007110925 -0.00506691 -0.007197709 0.017967507 -0.027767284
0.015837805 -0.028784024 0.019133104 -0.012474289 -0.008732962 -0.00036833694 0.05125203 0.009461551
00000000: 6535 053c 630b efbb c31d e33c 99d8 443c
00000010: 023d 7bbb f3ac 59ba 7ad2 503c 2537 923c
00000020: a272 e33c 5315 cc3b 93a2 c2bb d91e a9bb
00000030: ee18 633c 9b5a b43c cbfd a33b 85d2 063d
00000040: 7cb3 90bc db26 22bc 2e13 cb3a c302 e93b
00000050: 5208 a6bb c2da ebbb 9830 933c 3778 e3bc
00000060: 49be 813c 79cc ebbc 07bd 9c3c f660 4cbc
00000070: b314 0fbc 591d c1b9 a6ed 513d 9f04 1b3c

encoder.layer_1.fc.fc.0.weight f4 [64, 32]
-0.05560189 -0.030475667 0.11810098 -0.031330857 0.15081178 0.13964316 -0.13730548 -0.07363382
-0.030900847 -0.019751055 0.11339892 0.18772714 0.013890763 0.10634629 0.020329406 0.12549901
-0.11337122 0.09409788 -0.0016929689 0.054431584 -0.0018607823 -0.08485496 -0.16541116 -0.07423791
0.095970616 -0.077609465 0.14960416 -0.13359782 -0.039460674 0.13992423 -0.05175861 -0.17159215
-0.03354474 -0.17732672 -0.009225366 0.18772472 0.11623531 0.11013527 -0.16584176 -0.11854433
0.09091919 -0.10948601 -0.04811931 -0.0015860241 -0.15013915 -0.052448977 -0.000853724 -0.19683798
-0.056061205 0.05030623 0.068956554 -0.08201458 -0.15731263 -0.10260626 -0.047406908 -0.13605033
0.14032389 0.043338653 -0.027835943 0.077154785 -0.050331775 -0.12114504 0.06694005 -0.15087236
0.102451116 0.0061322986 0.017271128 -0.1735328 -0.072828874 -0.028313316 -0.04019881 -0.114597596
-0.031726815 -0.0076402337 -0.04804919 -0.010980868 -0.021256967 -0.05747353 0.097605556 -0.090233795
0.15035339 0.011552907 0.08565081 -0.03258027 -0.023863995 -0.14927197 0.05936608 0.081313975
0.039160993 0.09120403 0.026990527 -0.047129106 0.1368083 -0.1179482 0.013661286 -0.13177101
0.17058644 0.11163728 -0.18107034 -0.02300744 0.096311584 -0.09984148 -0.018819233 -0.1693386
-0.049188808 0.03807765 -0.10393293 -0.110048346 -0.04435697 0.11308805 0.02557432 0.058980715
0.018610386 -0.08947714 -0.037811074 -0.06698451 -0.19393225 0.13406989 0.12809503 -0.0117181055
-0.10510999 -0.15351015 0.090808265 -0.16293938 0.13260104 -0.0036799666 0.18900803 0.03150902
0.12719034 -0.02934609 -0.09455093 0.169466 -0.111989066 0.10385674 -0.09278039 -0.12792647
0.10304573 -0.15165266 0.0051023075 0.11073239 -0.19106226 0.019645113 -0.10353107 -0.03907182
0.07004879 -0.07059426 0.050676137 -0.16603988 -0.08245752 -0.012291541 -0.019024117 -0.11142794
0.15388046 0.1443627 -0.028552093 -0.15352033 -0.07764891 -0.09592645 0.07136239 0.099412225
0.08181491 0.07383812 -0.20410961 0.050797474 -0.11291456 -0.052246828 -0.12295534 -0.12612605
0.035739157 0.1593805 0.082946554 -0.097016394 0.043331426 0.077986345 0.23224512 -0.03681376
-0.054181293 0.05019507 -0.025154058 -0.16170506 -0.14192037 0.12918195 -0.0280633 -0.1136098
-0.0774104 -0.05338579 -0.13373305 -0.015048142 -0.109390855 -0.15966873 -0.003842347 -0.054680508
-0.12752649 0.08609051 -0.082129225 -0.09881412 0.020292958 0.043203317 0.0026953302 -0.020817176
0.2334897 -0.15424928 -0.022897232 0.12767765 -0.08107418 -0.06895053 -0.037505414 0.16368243
0.14565589 0.22020642 0.04996854 -0.18569708 -0.10177368 0.13152012 -0.014927229 0.22561091
0.1548488 0.18283191 -0.22175777 0.15959756 0.10047519 0.14479671 -0.02090683 0.011407439
0.203009 0.07126182 -0.19317459 -0.004250128 -0.1042606 0.18243888 0.06431892 -0.044557236
-0.14130881 0.104071714 0.05130911 0.017481644 -0.16898602 0.060296483 0.018979082 -0.14009152
0.21410353 0.00049481296 -0.29527286 -0.008817495 -0.1974732 0.173295 0.09194459 0.026596403
0.09654333 0.0007696132 -0.09984445 0.07968383 0.06423527 0.0807792 0.11560078 -0.22304854
00000000: cfbe 63bd 1ba8 f9bc edde f13d c954 00bd
00000010: 676e 1a3e 9efe 0e3e cf99 0cbe 54cd 96bd
00000020: c623 fdbc f7cc a1bc b13d e83d 8b3b 403e
00000030: 1596 633c 15cc d93d db89 a63c d082 003e
00000040: 2c2f e8bd 64b6 c03d 9ce6 ddba a7f3 5e3d
00000050: 7ee5 f3ba 70c8 adbd 8b61 29be 0c0a 98bd
00000060: 3e8c c43d b6f1 9ebd d531 193e decd 08be
00000070: 84a1 21bd 4c48 0f3e d600 54bd dab5 2fbe
00000080: 3666 09bd 2395 35be fd25 17bc e93a 403e
00000090: c70c ee3d 9a8e e13d 6cd2 29be 5fc7 f2bd
000000a0: d733 ba3d 343a e0bd c118 45bd 23e2 cfba
000000b0: 14be 19be bdd4 56bd 73cc 5fba e58f 49be
000000c0: 6fa0 65bd e80d 4e3d 1839 8d3d 43f7 a7bd
000000d0: 9016 21be 3b23 d2bd bf2d 42bd c750 0bbe
000000e0: 11b1 0f3e df83 313d 3408 e4bc 5403 9e3d
000000f0: b128 4ebd e41a f8bd dd17 893d 497e 1abe
00000100: e4d1 d13d 73f1 c83b 2e7c 8d3c 95b2 31be
00000110: 4e27 95bd 54f1 e7bc 82a7 24bd 25b2 eabd
00000120: faf3 01bd ed5a fabb 3acf 44bd 19e9 33bc
00000130: 1723 aebc 5d69 6bbd 6ce5 c73d 7fcc b8bd
00000140: 3df6 193e 6748 3d3c b169 af3d e472 05bd
00000150: 6d7e c3bc c0da 18be d929 733d f187 a63d
00000160: 4767 203d 2ec9 ba3d 3d1b dd3c 730a 41bd
00000170: 7a17 0c3e d38e f1bd 96d3 5f3c fbee 06be
00000180: 36ae 2e3e 16a2 e43d 816a 39be 197a bcbc
00000190: 023f c53d b179 ccbd cb2a 9abc 1967 2dbe
000001a0: 347a 49bd 4ff7 1b3d cada d4bd 0761 e1bd
000001b0: a7af 35bd b59a e73d 3d81 d13c c395 713d
000001c0: cf74 983c ca3f b7bd c9df 1abd 2d2f 89bd
000001d0: 2d96 46be 9e49 093e 582b 033e 4cfd 3fbc
000001e0: e843 d7bd c431 1dbe aff9 b93d 95d9 26be
000001f0: 91c8 073e 982b 71bb 528b 413e 9a0f 013d
00000200: 2f3e 023e 3667 f0bc eba3 c1bd 7f88 2d3e
00000210: 865a e5bd d8b2 d43d a503 bebd 28ff 02be
00000220: a409 d33d d64a 1bbe 4231 a73b aac7 e23d
00000230: d3a5 43be caee a03c 1908 d4bd c609 20bd
00000240: bd75 8f3d b993 90bd c891 4f3d 5c06 2abe
00000250: 7ddf a8bd 7662 49bc 77d8 9bbc 5534 e4bd
00000260: d792 1d3e d1d3 133e 14e6 e9bc 6f34 1dbe
00000270: 6406 9fbd 1675 c4bd 7226 923d a398 cb3d
00000280: 938e a73d 7138 973d 1c02 51be 0311 503d
00000290: c03f e7bd c500 56bd 02d0 fbbd 3027 01be
000002a0: 3963 123d a434 233e e2df a93d 88b0 c6bd
000002b0: 4b7c 313d 4eb7 9f3d aad1 6d3e 06ca 16bd
000002c0: 34ed 5dbd 5999 4d3d e20f cebc 0396 25be
000002d0: 9353 11be 4648 043e 01e5 e5bc 41ac e8bd
000002e0: 5889 9ebd 0fab 5abd 51f1 08be 7b8c 76bc
000002f0: 5008 e0bd 3380 23be e3cf 7bbb abf8 5fbd
00000300: 4e96 02be 3950 b03d 5e33 a8bd 0f5f cabd
00000310: 6b3d a63c f6f5 303d 23a4 303b c888 aabc
00000320: ed17 6f3e 86f3 1dbe fa92 bbbc eebd 023e
00000330: 380a a6bd ef35 8dbd 479f 19bd 5e9c 273e
00000340: d126 153e cb7d 613e d0ab 4c3d 6027 3ebe
00000350: b86e d0bd 36ad 063e 5691 74bc 8c06 673e
00000360: af90 1e3e 4a38 3b3e 7814 63be 8b6d 233e
00000370: f0c5 cd3d 9745 143e cd44 abbc 44e6 3a3c
00000380: 97e1 4f3e b8f1 913d 8fcf 45be a844 8bbb
00000390: 9586 d5bd 42d1 3a3e a3b9 833d a681 36bd
000003a0: 42b3 10be 8d23 d53d 8029 523d aa35 8f3c
000003b0: ac0a 2dbe 72f9 763d 057a 9b3c 2774 0fbe
000003c0: f53d 5b3e 56b6 013a 012e 97be 4177 10bc
000003d0: 6a36 4abe 3f74 313e 724d bc3d b3e0 d93c
000003e0: 82b8 c53d debf 493a 3f7b ccbd 4731 a33d
000003f0: c88d 833d 916f a53d 1ac0 ec3d d666 64be

encoder.layer_1.fc.fc.0.bias f4 [64]
-0.13612665 0.039405514 -0.14225836 0.073412046 -0.005697905 -0.14751698 0.17076518 -0.09882703
-0.034446023 -0.12300509 -0.077111974 -0.12052159 -0.114191934 0.13698065 0.10335454 -0.06125743
0.05048976 0.02350634 -0.09503347 0.0068552718 -0.1544787 -0.18018647 0.033387933 0.002221909
-0.04597752 -0.12434652 -0.043363124 -0.18628499 -0.15084706 -0.014797682 0.09413808 -0.05291166
-0.11563893 -0.14491764 0.081999056 0.09483822 -0.14871387 -0.025324967 -0.15272057 0.023727665
0.113645054 0.16903746 0.13745539 -0.030076176 0.050371934 0.096556805 0.11029574 0.0051272116
-0.09410609 -0.1687936 0.17672682 -0.09261992 -0.16711591 -0.08694605 0.06496338 0.022805253
0.046140466 -0.10665978 -0.0054704812 -0.15806536 0.010629756 -0.053845674 0.115081124 -0.18968289
00000000: c964 0bbe ad67 213d 2dac 11be 0e59 963d
00000010: 7eb5 babb b10e 17be 11dd 2e3e d365 cabd
00000020: 4617 0dbd 18ea fbbd e2ec 9dbd 06d4 f6bd
00000030: 76dd e9bd a844 0c3e 8cab d33d 12e9 7abd
00000040: 5ace 4e3d 5e90 c03c e8a0 c2bd 30a2 e03b
00000050: aa2f 1ebe cd82 38be c9c1 083d 729d 113b
00000060: ed52 3cbd 63a9 febd 889d 31bd 7ec1 3ebe
00000070: a777 1abe fa71 72bc 77cb c03d e6b9 58bd
00000080: 1ad4 ecbd 4a65 14be 1fef a73d 8a3a c23d
00000090: 7348 18be 4e76 cfbc c862 1cbe 8560 c23c
000000a0: bdbe e83d 2818 2d3e 1bc1 0c3e 5062 f6bc
000000b0: cd52 4e3d 93bf c53d bce2 e13d 2b02 a83b
000000c0: b2ba c0bd 3bd8 2cbe e0f7 343e 83af bdbd
000000d0: 6f20 2bbe c510 b2bd 850b 853d 15d2 ba3c
000000e0: c9fd 3c3d 7170 dabd b941 b3bb e3db 21be
000000f0: 6e28 2e3c 488d 5cbd a7af eb3d 3b3c 42be
