transformer.pth (torch, 389133 bytes, 130 tensors)

embed.pe f4 [1, 400, 32]
0.0 1.0 0.0 1.0 0.0 1.0 0.0 1.0
0.0 1.0 0.0 1.0 0.0 1.0 0.0 1.0
0.0 1.0 0.0 1.0 0.0 1.0 0.0 1.0
0.0 1.0 0.0 1.0 0.0 1.0 0.0 1.0
0.84147096 0.731761 0.53316844 0.91239583 0.3109836 0.9720144 0.17689219 0.99112177
0.099833414 0.9971896 0.056204498 0.999111 0.031617507 0.99971884 0.017781857 0.99991107
0.009999833 0.99997187 0.0056233834 0.9999911 0.0031622723 0.9999972 0.0017782785 0.9999991
0.0009999998 0.9999997 0.0005623413 0.99999994 0.00031622776 1.0 0.00017782794 1.0
0.9092974 0.07094825 0.9021307 0.6649324 0.5911271 0.8896242 0.34820527 0.96464473
0.19866933 0.98877424 0.112231314 0.99644554 0.063203394 0.9988755 0.03555809 0.99964434
0.019998666 0.9998875 0.011246589 0.9999644 0.0063245133 0.99998873 0.0035565514 0.9999964
0.0019999987 0.99999887 0.0011246824 0.99999964 0.0006324555 0.9999999 0.00035565588 0.99999994
0.14112 -0.62792665 0.9932532 0.3009673 0.8126489 0.7574407 0.50853616 0.92103904
0.29552022 0.9748012 0.1679033 0.9920084 0.09472609 0.99747056 0.05332308 0.99919987
0.029995501 0.999747 0.016869439 0.99991995 0.009486691 0.99997467 0.005334813 0.999992
0.0029999956 0.9999975 0.0016870232 0.9999992 0.0009486832 0.99999976 0.0005334838 0.99999994
-0.7568025 -0.9899327 0.77847177 -0.11572978 0.95358074 0.5828624 0.652828 0.8610789
0.38941833 0.95534897 0.22304448 0.9858075 0.12615407 0.9955046 0.07107121 0.9985777
0.039989334 0.99955016 0.022491757 0.9998577 0.012648773 0.999955 0.0071130577 0.99998575
0.0039999895 0.9999955 0.0022493633 0.99999857 0.0012649107 0.9999995 0.0007113117 0.9999999
-0.9589243 -0.8208616 0.3239352 -0.51215005 0.99994653 0.3756606 0.77652997 0.7858291
0.47942555 0.930527 0.27748054 0.9778537 0.15745589 0.992979 0.08879686 0.997778
0.04997917 0.99929714 0.028113361 0.99977773 0.01581073 0.9999297 0.00889128 0.99997777
0.0049999794 0.99999297 0.002811703 0.9999978 0.0015811381 0.9999993 0.0008891396 0.99999976
-0.2794155 -0.21141624 -0.23036748 -0.8188374 0.94714814 0.1474327 0.8757406 0.69662577
0.5646425 0.9004747 0.33103934 0.96816134 0.18860029 0.9898949 0.106494434 0.9968008
0.059964005 0.998988 0.03373408 0.9996799 0.018972527 0.9998988 0.010669474 0.999968
0.005999964 0.99998987 0.0033740415 0.9999968 0.0018973654 0.999999 0.0010669675 0.9999997
0.6569866 0.5114493 -0.71372116 -0.98205763 0.80042166 -0.08904716 0.9473307 0.5950528
0.64421767 0.86536103 0.38355157 0.9567476 0.2195561 0.9862542 0.12415834 0.99564636
0.06994285 0.9986226 0.03935373 0.99956435 0.022134136 0.99986225 0.012447635 0.9999564
0.006999943 0.99998623 0.003936379 0.99999565 0.0022135926 0.9999986 0.0012447953 0.9999996
00000000: 0000 0000 0000 803f 0000 0000 0000 803f
00000010: 0000 0000 0000 803f 0000 0000 0000 803f
00000020: 0000 0000 0000 803f 0000 0000 0000 803f
00000030: 0000 0000 0000 803f 0000 0000 0000 803f
00000040: 0000 0000 0000 803f 0000 0000 0000 803f
00000050: 0000 0000 0000 803f 0000 0000 0000 803f
00000060: 0000 0000 0000 803f 0000 0000 0000 803f
00000070: 0000 0000 0000 803f 0000 0000 0000 803f
00000080: a46a 573f b054 3b3f ba7d 083f c692 693f
00000090: 3e39 9f3e f0d5 783f 3a23 353e 28ba 7d3f
000000a0: 7675 cc3d d147 7f3f b036 663d bdc5 7f3f
000000b0: 5c81 013d 93ed 7f3f 42ab 913c 2cfa 7f3f
000000c0: 57d6 233c 28fe 7f3f 5c44 b83b 6bff 7f3f
000000d0: 203e 4f3b d1ff 7f3f 2015 e93a f1ff 7f3f
000000e0: 6d12 833a fbff 7f3f 166a 133a ffff 7f3f
000000f0: 5fcb a539 0000 803f 5377 3a39 0000 803f
00000100: b7c7 683f 514d 913d 0af2 663f 0339 2a3f
00000110: 1b54 173f 69be 633f f647 b23e f5f2 763f
00000120: f96f 4b3e 4f20 7d3f 88d9 e53d 0e17 7f3f
00000130: c870 813d 4eb6 7f3f 5ca5 113d b1e8 7f3f
00000140: 3ed4 a33c a1f8 7f3f 9d43 383c abfd 7f3f
00000150: dd3d cf3b 43ff 7f3f 0815 693b c4ff 7f3f
00000160: 6912 033b edff 7f3f 146a 933a faff 7f3f
00000170: 5fcb 253a feff 7f3f 5377 ba39 ffff 7f3f
00000180: c381 103e cdbf 20bf d745 7e3f 6318 9a3e
00000190: c209 503f a2e7 413f 6d2f 023f 37c9 6b3f
000001a0: 6d4e 973e 928c 793f d8ee 2b3e 43f4 7d3f
000001b0: c1ff c13d 3b5a 7f3f 4d69 5a3d 90cb 7f3f
000001c0: 20b9 f53c 6bef 7f3f c731 8a3c c1fa 7f3f
000001d0: 116e 1b3c 57fe 7f3f a8cf ae3b 7aff 7f3f
000001e0: 939b 443b d6ff 7f3f 1b1f dd3a f3ff 7f3f
000001f0: 0db1 783a fcff 7f3f 7ed9 0b3a ffff 7f3f
00000200: cfbd 41bf 3b6c 7dbf ed49 473f bc03 edbd
00000210: de1d 743f 7836 153f bc1f 273f ab6f 5c3f
00000220: d761 c73e c091 743f c665 643e e15d 7c3f
00000230: 882e 013e 64d9 7e3f c88d 913d caa2 7f3f
00000240: dbcb 233d 85e2 7f3f a240 b83c adf6 7f3f
00000250: cd3c 4f3c 0dfd 7f3f a714 e93b 11ff 7f3f
00000260: 5812 833b b5ff 7f3f 0e6a 133b e8ff 7f3f
00000270: 5ccb a53a f8ff 7f3f 5277 3a3a feff 7f3f
00000280: 107c 75bf fc23 52bf d6da a53e 441c 03bf
00000290: 7ffc 7f3f 9656 c03e abca 463f 192c 493f
000002a0: 4477 f53e 0437 6e3f ee11 8e3e 9f54 7a3f
000002b0: 1e3c 213e df33 7e3f 21db b53d 616e 7f3f
000002c0: f5b6 4c3d f0d1 7f3f fe4d e63c 6ff1 7f3f
000002d0: 8185 813c 65fb 7f3f bbac 113c 8bfe 7f3f
000002e0: ded6 a33b 8aff 7f3f 8c44 383b dbff 7f3f
000002f0: 313e cf3a f4ff 7f3f 2615 693a fcff 7f3f
00000300: 8c0f 8fbe 807d 58be 74e5 6bbe 549f 51bf
00000310: 4d78 723f 99f8 163e 8930 603f 1156 323f
00000320: 698c 103f 8385 663f fd7d a93e 6cd9 773f
00000330: 6f20 413e c169 7d3f c119 da3d 562e 7f3f
00000340: d19c 753d adbd 7f3f bf2c 0a3d 06eb 7f3f
00000350: 466c 9b3c 5ef9 7f3f 04cf 2e3c e7fd 7f3f
00000360: 599b c43b 56ff 7f3f 061f 5d3b caff 7f3f
00000370: 05b1 f83a efff 7f3f 7dd9 8b3a fbff 7f3f
00000380: 4630 283f 57ee 023f 6eb6 36bf 2168 7bbf
00000390: 6fe8 4c3f 5c5e b6bd 4484 723f 6155 183f
000003a0: 73eb 243f 4d88 5d3f df60 c43e 69ed 743f
000003b0: 50d3 603e 287b 7c3f ba46 fe3d aee2 7e3f
000003c0: 323e 8f3d bba5 7f3f 6031 213d 73e3 7f3f
000003d0: a652 b53c f9f6 7f3f 2af1 4b3c 25fd 7f3f
000003e0: c75f e53b 19ff 7f3f befc 803b b7ff 7f3f
000003f0: ec11 113b e9ff 7f3f 6628 a33a f9ff 7f3f

embed.embed.weight f4 [136, 32]
-0.17387232 0.05629864 0.12047888 -0.0025754718 0.14907725 -0.022833573 0.009207247 -0.10673728
0.0075272033 -0.036103647 0.028440988 -0.0012733842 0.19262691 0.0045117512 0.053012706 0.17195892
-0.094567835 0.05714352 0.13226299 0.014505803 0.14605656 0.10240425 -0.2801841 0.12844019
-0.15043832 -0.06585686 0.095068134 0.033579197 -0.055702128 -0.19484568 0.08937799 -0.020882307
0.043644268 0.2760157 -0.074948125 -0.14597534 0.11763542 0.11580998 0.19896841 0.13837503
0.074218124 -0.097222775 0.00010163252 0.013848624 0.19214998 -0.073002994 -0.0081063425 -0.012620536
-0.11217165 0.0690591 -0.22180986 0.021170674 -0.024342751 -0.057243355 0.16223447 0.029443104
0.12395318 0.0025622179 0.04727742 0.13467343 -0.077522 0.012333311 -0.042828113 -0.04648626
-0.0039300127 -0.21866564 0.092912 -0.056586273 0.033736404 0.013821411 -0.0051385616 -0.05661397
0.033098705 -0.15968542 0.08359682 0.02137681 -0.12657183 0.02001479 0.062811725 0.15412483
0.11648392 0.11676514 -0.09385584 -0.06100312 -0.00057255843 -0.09723868 -0.09654865 -0.05961063
0.14139728 -0.013954721 -0.07687984 -0.10396266 -0.046947554 0.064395554 0.103493296 -0.0099759605
-0.1416912 -0.0039350884 -0.011065952 -0.046278473 -0.031433653 0.06556149 0.1104215 0.01202189
0.08167889 0.005532771 0.11519305 0.14560008 -0.13676262 0.062920146 -0.08360053 -0.009097724
0.17164168 -0.16176002 0.009791624 0.048355874 0.11325099 -0.032264736 -0.100432314 -0.048495825
-0.039943278 -0.053356346 -0.14207873 -0.17617124 -0.15328301 0.015662981 0.045415763 -0.2193239
0.03316958 0.12089175 0.15968905 -0.034251723 -0.013285655 0.0500103 -0.08367365 -0.012368085
0.08218428 0.015589883 -0.21018504 0.08243902 -0.03848547 0.1260017 -0.19457874 0.0325001
0.07590468 0.026561135 -0.05132376 -0.014908949 0.083926536 -0.038690597 0.08599252 -0.110509135
-0.055383634 0.14989169 -0.07214063 -0.09211307 0.12628548 -0.16241424 -0.077135004 -0.03883933
0.009800165 -0.02849847 0.042908933 -0.020161776 -0.1262646 -0.03467996 0.14326586 0.17610872
0.087156765 -0.09369339 0.029615674 0.11741997 0.05869205 -0.05274659 0.0801601 0.010691579
-0.033892184 -0.0554186 0.14808567 -0.16122139 0.11161673 0.05791877 0.089671865 0.05000655
0.13374677 -0.07454105 -0.07574886 -0.1272795 0.036265697 0.052210905 0.037339788 -0.11172161
0.04681461 0.022019967 0.12920105 -0.06450098 -0.009750825 -0.09350141 -0.120470576 0.04675178
-0.10634923 0.14061458 0.011524341 0.10784882 -0.04703885 -0.026185969 -0.17343514 -0.15214036
0.11465068 -0.008074488 0.0154712815 -0.07694976 -0.0695761 -0.11224114 0.047001667 -0.070463076
-0.14868663 -0.05329364 0.03698356 -0.07855434 0.0030401947 0.099038996 0.05955201 0.06690096
0.081100404 -0.10444619 0.042217042 0.03669555 -0.010015483 -0.1495445 -0.106781356 0.07824801
-0.110815965 -0.029405285 -0.06176106 -0.0051354202 -0.09188586 -0.15934369 -0.05355334 -0.041908063
-0.030805591 0.15382218 -0.042016443 -0.036243107 0.020724067 -0.16875805 0.17291497 0.07324057
-0.02045641 0.04872037 -0.14544249 0.17124894 0.008344936 0.119878665 0.08758893 0.053626984
00000000: 960b 32be 6799 663d a2bd f63d 3fc9 28bb
00000010: b5a7 183e 790d bbbc fed9 163c 1399 dabd
00000020: c2a6 f63b 6be1 13bd 13fd e83c afe7 a6ba
00000030: fd3f 453e 50d7 933b da23 593d 0016 303e
00000040: c8ac c1bd 530f 6a3d f36f 073e bfa9 6d3c
00000050: da8f 153e 52b9 d13d 4a74 8fbe d385 033e
00000060: 810c 1abe f6df 86bd 15b3 c23d 578a 093d
00000070: ea27 64bd a085 47be cf0b b73d 5f11 abbc
00000080: 55c4 323d ee51 8d3e 677e 99bd 8f7a 15be
00000090: d7ea f03d c82d ed3d 60be 4b3e 2fb2 0d3e
000000a0: acff 973d bc1c c7bd 8b23 d538 57e5 623c
000000b0: f7c2 443e 9882 95bd 77d0 04bc 5dc6 4ebc
000000c0: 40ba e5bd db6e 8d3d 2022 63be 1f6e ad3c
000000d0: 736a c7bc 0278 6abd cb20 263e aa32 f13c
000000e0: 2adb fd3d e2ea 273b f8a5 413d d5e7 093e
000000f0: dbc3 9ebd a811 4a3c 886c 2fbd 6068 3ebd
00000100: 56c7 80bb e3e9 5fbe a648 be3d 02c7 67bd
00000110: 2f2f 0a3d 3373 623c 6161 a8bb 0de4 67bd
00000120: 8292 073d 9384 23be cf34 ab3d 6b1e af3c
00000130: 0c9c 01be 0ff6 a33c 6fa3 803d e6d2 1d3e
00000140: 1f8f ee3d 9022 ef3d 7e37 c0bd 68de 79bd
00000150: bf17 16ba 1325 c7bd 4cbb c5bd 472a 74bd
00000160: 73ca 103e 58a2 64bc 2d73 9dbd 60ea d4bd
00000170: 144c 40bd d1e1 833d 4bf4 d33d 3672 23bc
00000180: 7f17 11be eaf1 80bb f74d 35bc 7f8e 3dbd
00000190: 93c0 00bd 1a45 863d ab24 e23d 76f7 443c
000001a0: 4347 a73d 3f4c b53b 55ea eb3d 3018 153e
000001b0: 800b 0cbe 47dc 803d c136 abbd 9f0e 15bc
000001c0: d6c2 2f3e 6ba4 25be 0c6d 203c cf10 463d
000001d0: 23f0 e73d 0728 04bd 75af cdbd 8fa3 46bd
000001e0: 909b 23bd 2f8c 5abd 167d 11be 3c66 34be
000001f0: 39f6 1cbe a74f 803c e105 3a3d 7296 60be
00000200: d3dc 073d 1896 f73d 8785 233e 894b 0cbd
00000210: 13ac 59bc 9ad7 4c3d 175d abbd 82a3 4abc
00000220: 3b50 a83d b56c 7f3c bf3a 57be cad5 a83d
00000230: f1a2 1dbd 9706 013e a63f 47be d31e 053d
00000240: ea73 9b3d bd96 d93c dd38 52bd aa44 74bc
00000250: ade1 ab3d 087a 1ebd d91c b03d 9d52 e2bd
00000260: f3d9 62bd 357d 193e 77be 93bd c7a5 bcbd
00000270: fb50 013e eb4f 26be f5f8 9dbd fd15 1fbd
00000280: df90 203c a075 e9bc 47c1 2f3d 4f2a a5bc
00000290: 824b 01be 930c 0ebd 49b4 123e d855 343e
000002a0: 3f7f b23d 52e2 bfbd 929c f23c e279 f03d
000002b0: 1367 703d cf0c 58bd fa2a a43d bc2b 2f3c
000002c0: 88d2 0abd 9dfe 62bd c5a3 173e 3817 25be
000002d0: 5097 e43d 3b3c 6d3d e2a5 b73d abd3 4c3d
000002e0: eaf4 083e faa8 98bd 3822 9bbd 8f55 02be
000002f0: 578b 143d 1adb 553d 9bf1 183d 4dce e4bd
00000300: adc0 3f3d 3863 b43c 484d 043e 1719 84bd
00000310: edc1 1fbc ab7d bfbd 47b9 f6bd cb7e 3f3d
00000320: a0cd d9bd 45fd 0f3e 97d0 3c3c d8df dc3d
00000330: cfab 40bd f583 d6bc fb98 31be afca 1bbe
00000340: facd ea3d db4a 04bc 427b 7d3c d697 9dbd
00000350: ea7d 8ebd afde e5bd d284 403d f24e 90bd
00000360: 4f41 18be 6f4a 5abd 137c 173d 19e1 a0bd
00000370: 013e 473b f5d4 ca3d cfec 733d 5f03 893d
00000380: f817 a63d e2e7 d5bd c7eb 2c3d 134e 163d
00000390: fb17 24bc 3222 19be 2fb0 dabd 7e40 a03d
000003a0: 7bf3 e2bd 5ae3 f0bc 2af9 7cbd 0747 a8bb
000003b0: a72e bcbd fe2a 23be bf5a 5bbd caa7 2bbd
000003c0: 025c fcbc 9083 1d3e 6f19 2cbd a773 14bd
000003d0: 85c5 a93c e9ce 2cbe 9f10 313e 27ff 953d
000003e0: 3394 a7bc 038f 473d e0ee 14be e25b 2f3e
000003f0: 33b9 083c f282 f53d d361 b33d f8a7 5b3d

encoder.layer_1.multihead.fc_Q.weight f4 [32, 32]
0.082537115 0.13555814 -0.009666048 -0.038146324 -0.07927615 0.2654038 -0.18482338 0.1285211
0.08550383 0.2171736 0.19699244 0.2757287 0.10978176 0.0022647416 0.08747409 -0.21350278
0.11935816 -0.03298956 -0.058529407 -0.1905711 0.07932866 -0.2404475 -0.02840901 0.016831396
0.1638248 -0.19941081 0.0326382 -0.050309133 0.2676497 -0.14829986 0.12825602 -0.21223107
0.1727987 0.120263144 -0.10331381 0.10542827 0.017030971 0.032435514 0.081374265 0.032047443
0.21496922 -0.0017148434 -0.069036126 0.034545578 0.0009947355 0.15047583 0.21938348 0.10592252
-0.22001228 -0.12275114 0.01865312 -0.22588712 0.21387653 -0.1914598 -0.022475367 -0.105470456
0.0295209 -0.21553944 0.11063684 -0.040593892 0.21611588 0.09838996 0.01773168 -0.1768805
-0.090569094 -0.18987687 -0.018507427 -0.09435241 -0.044486783 -0.23192574 -0.10095706 0.11690271
0.1037388 0.0451604 -0.1009817 -0.07105782 -0.023222746 0.008661395 -0.28037158 -0.058769457
0.04497192 -0.037088726 0.064543195 0.17419302 -0.034124505 0.039566755 -0.23061068 0.0013792367
0.053776912 0.1419062 -0.09321335 -0.072246015 -0.22239608 0.06490944 -0.24373844 0.20195235
0.040945772 0.053070508 -0.09100143 0.060944833 -0.19501723 0.032482672 -0.076635845 -0.09907728
-0.021493284 -0.22221059 -0.12571786 -0.21184498 -0.03700385 -0.100118175 0.10703741 0.025138736
-0.1300992 -0.09827779 0.0890182 0.16625032 -0.0917137 0.09106578 -0.12598461 -0.1161055
-0.0489372 -0.016741075 0.15585539 -0.07931517 0.042559173 0.015588102 -0.003911432 0.13133855
0.28444815 -0.030899862 0.10076702 -0.04471255 0.026415385 0.06532817 0.25012252 -0.019819686
-0.12075761 0.2621985 -0.18644848 0.1081896 0.2191294 0.01143646 0.0919991 -0.058482967
-0.20258309 -0.07253871 -0.07783186 -0.15738249 -0.04439085 -0.20010257 0.27102417 -0.1029524
0.27645177 -0.23519574 0.25910404 -0.033364736 -0.011156405 -0.03020068 0.11148566 -0.17962599
-0.040364802 0.05308862 0.008548571 -0.013897862 0.095254615 -0.120397806 -0.15050356 -0.07382195
0.06910033 -0.13865064 0.11530044 0.08079733 -0.11409644 -0.14512636 0.10183194 0.19856115
0.09649377 0.15666673 -0.04560868 0.20547237 -0.11063674 0.1424911 -0.08158973 0.035846792
-0.06148824 -0.07859783 -0.19514725 0.19806305 0.035028167 0.23201524 0.0722893 -0.047493435
0.15953846 -0.023220852 -0.08344486 0.02915846 -0.034343995 0.019292317 0.23650768 -0.1643564
-0.07272908 0.10461144 -0.24917276 -0.18823144 0.07561438 0.0016559525 -0.025295164 -0.023756668
0.13171174 0.008609309 -0.081657745 -0.030005012 0.1518183 0.011310695 -0.11343493 -0.0559444
0.14139667 -0.1316672 0.09145939 -0.18218942 0.083645456 -0.072524205 0.096911736 0.13393171
0.045299273 0.1253313 -0.1798437 -0.16767661 -0.11799117 -0.017531522 0.14635956 0.107832715
0.0035208699 -0.16886973 0.01577551 -0.17826737 0.23591034 0.11105874 -0.124733955 0.16667604
0.041538112 0.19388519 -0.055311 0.13145772 -0.01802871 0.031504877 0.038076013 -0.11232589
0.10996917 -0.08277454 0.08532005 -0.09653945 -0.038190573 0.05821353 -0.086554825 -0.07893188
00000000: 3809 a93d c1cf 0a3e 585e 1ebc 523f 1cbd
00000010: 895b a2bd 02e3 873e 5742 3dbe 099b 033e
00000020: a21c af3d c262 5e3e 63b8 493e 502c 8d3e
00000030: 42d5 e03d 0f6c 143b 9e25 b33d 79a0 5abe
00000040: 0d72 f43d 1020 07bd 88bc 6fbd 1225 43be
00000050: 1177 a23d df37 76be 03ba e8bc ffe1 893c
00000060: b0c1 273e 5932 4cbe a2af 053d f310 4ebd
00000070: 6209 893e ebdb 17be 8c55 033e 1a53 59be
00000080: 24f2 303e 864c f63d 3196 d3bd c7ea d73d
00000090: 8984 8b3c 1adb 043d 8da7 a63d 2e44 033d
000000a0: e420 5c3e 99c4 e0ba d062 8dbd aa7f 0d3d
000000b0: c961 823a 5616 1a3e 10a6 603e e8ed d83d
000000c0: e64a 61be f364 fbbd 6ece 983c f44e 67be
000000d0: 7302 5b3e 0a0e 44be 431e b8bc e500 d8bd
000000e0: d1d5 f13c 5fb6 5cbe 9195 e23d c845 26bd
000000f0: 7b4d 5d3e ad80 c93d 0742 913c 2920 35be
00000100: 4a7c b9bd 156f 42be e39c 97bc d63b c1bd
00000110: c637 36bd f17d 6dbe 93c2 cebd b06a ef3d
00000120: 0275 d43d 1dfa 383d 7ecf cebd c386 91bd
00000130: a13d bebc 86e8 0d3c dd8c 8fbe 3eb8 70bd
00000140: 7a34 383d 59ea 17bd 392f 843d a85f 323e
00000150: 23c6 0bbd c010 223d 3525 6cbe 81c7 b43a
00000160: 2e45 5c3d dc4f 113e a4e6 bebd b8f5 93bd
00000170: ccbb 63be 3eef 843d 9296 79be 99cc 4e3e
00000180: c1b6 273d 7660 593d f55e babd 4aa1 793d
00000190: 99b2 47be 8d0c 053d 41f3 9cbd 07e9 cabd
000001a0: af12 b0bc 2c8b 63be 2fbc 00be e4ed 58be
000001b0: 5991 17bd c20a cdbd 6e36 db3d c0ef cd3c
000001c0: ba38 05be de45 c9bd 2d4f b63d 863d 2a3e
000001d0: 64d4 bbbd b280 ba3d 1c02 01be b8c8 edbd
000001e0: 6072 48bd 9424 89bc 8e98 1f3e fe6f a2bd
000001f0: 8752 2e3d 3d65 7f3c 782b 80bb 9d7d 063e
00000200: 30a3 913e b521 fdbc f05e ce3d 8224 37bd
00000210: 1465 d83c c7ca 853d 0f10 803e e55c a2bc
00000220: c44f f7bd e23e 863e 5aec 3ebe 8292 dd3d
00000230: 7563 603e fd5f 3b3c 066a bc3d d68b 6fbd
00000240: f171 4fbe 2d8f 94bd 4f66 9fbd e028 21be
00000250: 2ed3 35bd b0e7 4cbe aec3 8a3e b5d8 d2bd
00000260: 168b 8d3e 27d7 70be 49a9 843e 76a9 08bd
00000270: 5bc9 36bc 6b67 f7bc 9852 e43d e0ef 37be
00000280: 9055 25bd 7473 593d 4e0f 0c3c dcb3 63bc
00000290: da14 c33d 2093 f6bd 9b1d 1abe f62f 97bd
000002a0: 7984 8d3d 6ffa 0dbe a322 ec3d 1279 a53d
000002b0: 65ab e9bd 019c 14be 448d d03d 9d53 4b3e
000002c0: 879e c53d 3e6d 203e 2bd0 3abd 5967 523e
000002d0: 8495 e2bd 30e9 113e 8418 a7bd 16d4 123d
000002e0: 18db 7bbd e6f7 a0bd aed4 47be 0ad1 4a3e
000002f0: b279 0f3d 6795 6d3e 6a0c 943d 7a88 42bd
00000300: 0d5e 233e a839 bebc 24e5 aabd b9dd ee3c
00000310: 4aac 0cbd ec0a 9e3c 122f 723e 0b4d 28be
00000320: fcf2 94bd 863e d63d 2527 7fbe bebf 40be
00000330: b6db 9a3d 8c0c d93a ce37 cfbc 589d c2bc
00000340: 71df 063e 0f0e 0d3c 2d3c a7bd 12cd f5bc
00000350: 4276 1b3e 7e50 393c 9350 e8bd f525 65bd
00000360: 4aca 103e c4d3 06be 104f bb3d dd8f 3abe
00000370: 4f4e ab3d 9287 94bd a979 c63d 6525 093e
00000380: bb8b 393d d956 003e f228 38be 6bb3 2bbe
00000390: 5ba5 f1bd 449e 8fbc 48df 153e 66d7 dc3d
000003a0: 65be 663b 30ec 2cbe a43b 813c b98b 36be
000003b0: 7b92 713e c472 e33d 8474 ffbd 20ad 2a3e
000003c0: de23 2a3d d789 463e ca8d 62bd da9c 063e
000003d0: f2b0 93bc 420b 013d 98f5 1b3d 1e0b e6bd
000003e0: 8437 e13d b385 a9bd 47bc ae3d 7ab6 c5bd
000003f0: b86d 1cbd 4f71 6e3d a843 b1bd 0aa7 a1bd

encoder.layer_1.multihead.fc_Q.bias f4 [32]
0.0059793442 -0.17339793 -0.036790285 0.14585373 0.019683905 0.039828267 0.081224516 -0.08923754
-0.06242149 -0.0015343124 -0.12150109 -0.06672142 0.007877004 -0.005137841 0.12580413 -0.05696075
-0.14201234 -0.21000843 -0.12384186 0.11906136 -0.1329705 -0.18090637 -0.13570154 0.09987822
0.15318173 0.095944345 0.010157434 -0.12494328 0.014857328 0.14497782 0.20659438 -0.1139869
00000000: 60ee c33b 3a8f 31be 69b1 16bd ae5a 153e
00000010: 2440 a13c f722 233d 0a59 a63d 2cc2 b6bd
00000020: adad 7fbd fb1a c9ba 90d5 f8bd 3da5 88bd
00000030: 8d0e 013c 565b a8bb ccd2 003e ad4f 69bd
00000040: af6b 11be 730c 57be cda0 fdbd 71d6 f33d
00000050: 6b29 08be 853f 39be 58f5 0abe f48c cc3d
00000060: acdb 1c3e 787e c43d 5e6b 263c 43e2 ffbd
00000070: 266c 733c 1175 143e 7a8d 533e f771 e9bd

encoder.layer_1.multihead.fc_K.weight f4 [32, 32]
0.15213183 -0.18766655 -0.06675271 -0.010686766 0.07075991 -0.04137946 0.028312732 -0.0051597315
0.044700034 0.1300366 0.10397736 -0.022122603 -0.17742483 0.110060826 -0.09558065 -0.04625863
-0.049570482 -0.1806527 0.29036096 0.36185834 0.30512038 0.0604927 0.031157373 0.33309212
-0.17735872 0.21575676 -0.08793104 -0.27356663 -0.22118208 -0.24250351 -0.25876832 0.32829714
0.09077146 -0.061791923 0.034657303 -0.026560104 0.05257693 0.12678097 -0.09285337 -0.018138545
0.031704772 -0.031216793 0.11389044 0.108819485 -0.11550488 0.07145473 0.046078257 -0.046545178
-0.10333209 -0.15304232 0.032234475 0.05980223 0.3018756 0.088148035 0.11615505 0.14246252
-0.14895551 0.20804839 -0.021689013 -0.14145723 -0.25100872 -0.18663004 -0.2791625 0.28539255
0.07005779 0.25305244 0.039763965 0.012628179 -0.18302102 -0.018768793 0.10412038 -0.019661095
-0.042596344 -0.095717974 -0.20057487 -0.111179374 0.028599236 -0.01509053 -0.101749375 0.034985524
0.043072764 0.20935832 -0.14549337 -0.019210344 -0.10972548 0.049563866 -0.10498173 0.09108104
0.14374003 -0.03888095 0.41399923 0.28840747 0.19345619 0.23257488 0.119397245 -0.104897305
-0.048016783 0.15941912 0.106756955 0.034325875 -0.14878033 -0.07513547 0.109694816 -0.21110149
-0.0151546495 0.034935225 -0.11828715 0.21938735 -0.035215158 0.16446728 -0.031881314 0.10983929
-0.12743667 0.18285342 -0.08969605 -0.11696409 -0.17500135 0.20474292 -0.0408016 -0.06403617
-0.19988829 -0.13723767 0.21813384 -0.0038963074 -0.16148356 0.05874364 0.23625876 -0.18125117
0.09029216 -0.22388484 -0.05970752 0.109550536 0.0023318285 0.060166005 -0.1169243 -0.027930945
0.10558181 -0.0080155665 0.18568498 0.083096184 0.04202327 -0.04796514 0.17507425 0.29283231
0.010177957 -0.024014166 0.100396305 0.05558366 0.03232345 -0.17381187 0.34170485 0.06292995
0.09367349 0.14512171 -0.23388906 -0.33118245 0.014048533 -0.41451314 -0.3366457 0.34206745
0.05702987 -0.07691128 -0.01791013 -0.022252223 -0.08338853 -0.014809349 0.23648357 -0.005972821
0.09362248 0.028945334 0.15846498 0.09553045 0.06459423 -0.116841584 -0.0897353 0.000946774
0.17496184 0.115999535 -0.18328576 -0.23334408 -0.14369506 -0.04002723 -0.11568157 -0.2204637
0.13109134 -0.1211659 0.09434801 0.01092802 -0.01292085 0.29865608 0.20698169 -0.19402686
-0.1433589 -0.24313259 0.022694511 -0.06874213 -0.05560744 0.123929106 -0.1483146 0.007386968
0.05161828 0.16379425 0.04503635 0.03751896 0.08006458 0.18012284 -0.03505866 0.25644308
-0.17563246 -0.21703294 0.19896555 0.16204774 -0.04836347 -0.14316405 0.00027029746 0.16769055
0.083941884 0.2090695 -0.10740304 -0.22383228 0.022787083 -0.1702311 -0.2683639 0.29069164
-0.20421809 0.14668849 -0.0042255437 0.09680535 -0.21316533 0.169089 -0.04708653 0.11981744
-0.20169099 -0.17860675 -0.06276974 -0.05571552 0.10029858 0.20904967 0.040220622 0.03653867
0.059848186 0.15994105 0.01762422 0.2431821 -0.016277475 -0.12657434 0.02523618 0.14946434
-0.15783529 0.052852917 -0.22172299 -0.24846844 0.108159736 -0.18061326 -0.041899372 0.23432957
00000000: 72c8 1b3e a92b 40be a5b5 88bd 8c17 2fbc
00000010: 92ea 903d 827d 29bd 1af0 e73c f712 a9bb
00000020: 6217 373d 5128 053e 15f2 d43d 763a b5bc
00000030: dbae 35be 9267 e13d cabf c3bd b079 3dbd
00000040: 6b0a 4bbd 05fd 38be 31aa 943e 7f45 b93e
00000050: bd38 9c3e 32c7 773d bf3d ff3c 0d8b aa3e
00000060: 869d 35be 57ef 5c3e 3015 b4bd ed10 8cbe
00000070: 8e7d 62be d752 78be 487d 84be 9016 a83e
00000080: 63e6 b93d 8719 7dbd d1f4 0d3d 9394 d9bc
00000090: e85a 573d dfd2 013e e829 bebd 4997 94bc
000000a0: dddc 013d 5cba ffbc 643f e93d c0dc de3d
000000b0: d38d ecbd dc56 923d 8ebc 3c3d 28a6 3ebd
000000c0: c69f d3bd 20b7 1cbe 4c08 043d 2ff3 743d
000000d0: 708f 9a3e f586 b43d b3e2 ed3d b2e1 113e
000000e0: cb87 18be a30a 553e 28ad b1bc 2ada 10be
000000f0: 3784 80be f21b 3fbe 63ee 8ebe f91e 923e
00000100: 757a 8f3d 1790 813e 8adf 223d 6ce6 4e3c
00000110: dd69 3bbe 03c1 99bc 113d d53d 4e10 a1bc
00000120: 8179 2ebd c907 c4bd 8063 4dbe 03b2 e3bd
00000130: f248 ea3c 453e 77bc fa61 d0bd fb4c 0f3d
00000140: 116d 303d 0762 563e 37fc 14be 035f 9dbc
00000150: c1b7 e0bd 7b03 4b3d a900 d7bd b288 ba3d
00000160: 9630 133e a241 1fbd b5f7 d33e 25aa 933e
00000170: 6119 463e 1c28 6e3e 8b86 f43d 66d4 d6bd
00000180: 3fad 44bd c43e 233e 64a3 da3d 4a99 0c3d
00000190: df59 18be a0e0 99bd ada7 e03d fd2a 58be
000001a0: 354b 78bc 3d18 0f3d 8940 f2bd 14a7 603e
000001b0: c53d 10bd 1c6a 283e fb95 02bd 6cf3 e03d
000001c0: c27e 02be ed3d 3b3e 90b2 b7bd de8a efbd
000001d0: 8e33 33be 21a8 513e 941f 27bd 6525 83bd
000001e0: 84af 4cbe 0888 0cbe 7a5e 5f3e 3159 7fbb
000001f0: f25b 25be 2c9d 703d d1ed 713e e899 39be
00000200: 19eb b83d 1142 65be df8f 74bd 085c e03d
00000210: 97d1 183b a170 763d 0276 efbd 70cf e4bc
00000220: 473b d83d b953 03bc 3424 3e3e 552e aa3d
00000230: 9820 2c3d 1877 44bd aa46 333e 1eee 953e
00000240: 72c1 263c 5bb9 c4bc 949c cd3d b1ab 633d
00000250: 9865 043d bdfb 31be f0f3 ae3e 6be1 803d
00000260: e3d7 bf3d c99a 143e 9d80 6fbe bf90 a9be
00000270: d12b 663c 113b d4be d35c acbe 7723 af3e
00000280: 2798 693d a983 9dbd 44b8 92bc 4b4a b6bc
00000290: 9bc7 aabd e9a2 72bc c028 723e a7b7 c3bb
000002a0: 25bd bf3d c41e ed3c a544 223e 78a5 c33d
000002b0: fb49 843d a44a efbd 24c7 b7bd ed30 783a
000002c0: 3229 333e 2a91 ed3d 43af 3bbe c0f1 6ebe
000002d0: cc24 13be 98f3 23bd 75ea ecbd 3cc1 61be
000002e0: cf3c 063e d425 f8bd 8839 c13d 700b 333c
000002f0: f9b1 53bc 73e9 983e 02f3 533e faae 46be
00000300: adcc 12be c0f7 78be d7e9 b93c adc8 8cbd
00000310: a1c4 63bd 8bce fd3d c8df 17be 610e f23b
00000320: b16d 533d aeb9 273e 0978 383d 7bad 193d
00000330: e6f8 a33d 1f72 383e ab99 0fbd 824c 833e
00000340: ffd8 33be e23d 5ebe a0bd 4b3e d8ef 253e
00000350: c618 46bd 9999 12be b6b6 8d39 12b7 2b3e
00000360: b9e9 ab3d 5116 563e 20f6 dbbd 4a34 65be
00000370: faab ba3c 1051 2ebe fe66 89be 89d5 943e
00000380: 8c1e 51be 8235 163e 6e76 8abb e241 c63d
00000390: 0348 5abe ab25 2d3e cedd 40bd d962 f53d
000003a0: 1588 4ebe b0e4 36be 6c8d 80bd f535 64bd
000003b0: 5869 cd3d 1e11 563e 61be 243d 93a9 153d
000003c0: 5f23 753d 96c7 233e ab60 903c ba04 793e
000003d0: 5758 85bc b49c 01be 1bbc ce3c 2e0d 193e
000003e0: 939f 21be 4d7c 583d 5a0b 63be 836e 7ebe
000003f0: da82 dd3d aff2 38be ad9e 2bbd 17f4 6f3e

encoder.layer_1.multihead.fc_K.bias f4 [32]
-0.098717965 -0.14412206 0.116136506 -0.023404088 -0.08376266 0.15132286 -0.042124953 -0.10559704
0.15343618 -0.04069048 0.0646803 -0.020099293 0.1639351 -0.06827694 -0.13201673 -0.14735319
0.09979001 0.15341297 -0.10343294 0.036081273 -0.108397484 0.107965045 -0.08208145 0.015896354
-0.13995308 0.14962143 0.16476396 -0.15552041 -0.09131145 0.085238606 0.10529503 -0.15298107
00000000: a52c cabd bc94 13be fad8 ed3d eeb9 bfbc
00000010: c28b abbd 61f4 1a3e 378b 2cbd 4343 d8bd
00000020: 601e 1d3e 10ab 26bd 1b77 843d 46a7 a4bc
00000030: 9ade 273e c8d4 8bbd 652f 07be c1e3 16be
00000040: b45e cc3d 4a18 1d3e a6d4 d3bd f5c9 133d
00000050: 80ff ddbd c71c dd3d 521a a8bd 1239 823c
00000060: dc4f 0fbe 5c36 193e e2b7 283e be40 1fbe
00000070: 7f01 bbbd 9491 ae3d eca4 d73d 12a7 1cbe

encoder.layer_1.multihead.fc_V.weight f4 [32, 32]
0.06617961 0.010568474 0.07630975 -0.23510984 -0.0886462 0.10222295 -0.13247572 -0.1515148
0.15279157 -0.078618295 -0.008377231 0.021678898 -0.13519035 0.16088077 -0.15182541 0.011987242
0.06621433 0.11524221 0.045499943 0.0051229238 -0.018444851 -0.08846812 0.07092236 0.13477488
-0.04194391 -0.14158073 0.0573842 0.1012012 -0.12426319 0.11667324 0.17492108 0.109734
0.008560689 -0.014479736 0.064012185 -0.012774409 0.05524507 -0.106299795 0.16039866 0.15688372
0.06657558 -0.09159843 -0.17994049 -0.21395637 0.0132358745 -0.023913197 0.16015911 0.09526563
-0.12233159 0.017650845 0.17546988 -0.059253193 0.22200733 -0.11734339 0.062102906 0.21215603
-0.26868367 -0.057120476 -0.119232856 -0.16017906 -0.063172795 -0.14113985 0.14807706 -0.046637654
0.16873929 -0.00815225 0.1612874 -0.07560038 -0.066266775 -0.03360181 0.13436069 0.12380385
0.09581489 0.09916979 -0.03780955 -0.15685709 0.061966084 0.14906716 0.064718984 -0.18902183
-0.022905111 -0.09898939 0.0059496397 -0.11720272 -0.033549547 -0.13419 -0.16831541 0.055469863
-0.06538803 0.020954074 0.08103084 -0.07346812 -0.088695936 0.18995714 -0.06998709 0.18175341
-0.06510925 -0.103683844 -0.08700743 0.030553393 -0.03142933 0.15720068 -0.13644768 -0.118985616
-0.20080464 0.10236342 0.09454538 0.042122178 0.10693149 0.17336616 0.035692777 -0.02740941
-0.09967992 -0.1638707 0.13478574 0.16878225 -0.08135619 -0.09134153 -0.09398547 -0.033819627
-0.07014305 0.18261799 -0.2096251 -0.06692396 0.066004716 0.019985566 -0.18220124 -0.103083834
-0.12172624 -0.10857486 0.123958185 0.075488426 -0.10427869 0.0033434154 0.036409862 0.04292575
-0.10882442 -0.061388172 0.099199414 0.058679428 0.049193352 0.15490976 0.021331653 -0.07670162
-0.010657935 0.057588376 0.14754792 -0.020734908 -0.10592604 0.052790023 0.106307656 0.0236619
-0.092603356 -0.09879082 0.046646282 0.14841889 0.12559237 -0.14403942 -0.08661076 0.020047605
-0.15172845 -0.24310827 -0.0792857 0.115778774 0.1491609 0.042090546 -0.12853122 0.0057471204
-0.039957568 0.14817889 0.052498184 0.1655107 0.19620346 -0.07053357 0.14102522 -0.009560375
0.10500686 -0.03550379 -0.006606525 0.035668112 -0.059142876 -0.12768541 -0.23280337 -0.011778106
-0.110611275 -0.045820024 -0.036727916 0.19458358 -0.056567598 0.19031256 0.04164247 -0.091978334
0.110481665 -0.150801 -0.011401485 0.12662695 -0.112730436 0.19747236 -0.05168898 -0.034797993
0.073052146 -0.1165401 -0.13237958 0.048729915 0.08122575 0.022483533 -0.07079018 -0.12222198
0.1436543 0.015291285 0.01400982 -0.13273828 -0.021728912 0.057129312 -0.05636188 0.13164929
-0.13216414 -0.12819104 -0.06968416 0.11264316 0.010079785 0.17202199 -0.07347165 -0.20434292
0.011874602 0.19308126 0.06477282 -0.18577184 -0.1465597 0.10568965 0.09909436 0.032441743
0.088339955 -0.1983422 0.10651091 0.06572209 -0.16608447 0.0965627 -0.007040647 0.017652838
0.11690594 0.11324595 -0.081935965 0.075631805 0.03442092 0.17291082 0.06455374 0.16282876
-0.06940278 0.03324795 -0.07384405 -0.14354885 -0.11787522 -0.056377824 -0.030037504 -0.1486273
00000000: 2d89 873d 6527 2d3c 4948 9c3d a2c0 70be
00000010: 248c b5bd 445a d13d b7a7 07be b226 1bbe
00000020: 6575 1c3e a102 a1bd a740 09bc f297 b13c
00000030: 576f 0abe eebd 243e 1f78 1bbe 2366 443c
00000040: 619b 873d 1c04 ec3d 265e 3a3d 33de a73b
00000050: a819 97bc c62e b5bd be3f 913d 6d02 0a3e
00000060: 61cd 2bbd 8afa 10be b20b 6b3d 9342 cf3d
00000070: b37d febd 61f2 ee3d 831e 333e 38bc e03d
00000080: 2242 0c3c 6a3c 6dbc d218 833d c14b 51bc
00000090: a848 623d b5b3 d9bd 8c3f 243e 20a6 203e
000000a0: c758 883d f597 bbbd 5242 38be 6117 5bbe
000000b0: 48db 583c 9ce5 c3bc c000 243e a01a c33d
000000c0: fc88 fabd 8198 903c 60ae 333e 7ab3 72bd
000000d0: e455 633e bb51 f0bd 9e5f 7e3d 6e3f 593e
000000e0: e890 89be 29f7 69bd 5b30 f4bd fb05 24be
000000f0: bd60 81bd f786 10be 83a1 173e 2007 3fbd
00000100: fec9 2c3e 0491 05bc 8628 253e 5fd4 9abd
00000110: e0b6 87bd 0da2 09bd d995 093e df8c fd3d
00000120: 993a c43d 8819 cb3d 30de 1abd 259f 20be
00000130: 26d0 7d3d 10a5 183e 638b 843d f08e 41be
00000140: 80a3 bbbc f3ba cabd 32f5 c23b fb07 f0bd
00000150: 406b 09bd 1a69 09be e05a 2cbe 5e34 633d
00000160: 29ea 85bd e1a7 ab3c 7ff3 a53d 7476 96bd
00000170: 37a6 b5bd 2084 423e 6455 8fbd 911d 3a3e
00000180: 0058 85bd 3258 d4bd f430 b2bd 1c4b fa3c
00000190: 0bbc 00bd 37f9 203e f1b8 0bbe bbae f3bd
000001a0: bb9f 4dbe eaa3 d13d 02a1 c13d 4e88 2c3d
000001b0: e6fe da3d e686 313e 9732 123d b389 e0bc
000001c0: fc24 ccbd b9cd 27be 4605 0a3e 41d5 2c3e
000001d0: 139e a6bd 4511 bbbd 747b c0bd 7386 0abd
000001e0: 29a7 8fbd 3600 3b3e f6a7 56be 6e0f 89bd
000001f0: 7b2d 873d c5b8 a33c f692 3abe 9e1d d3bd
00000200: 9b4b f9bd 7f5c debd cadd fd3d ad99 9a3d
00000210: 1190 d5bd 341d 5b3b 8222 153d e9d2 2f3d
00000220: 56df debd 2a72 7bbd 1029 cb3d d759 703d
00000230: f87e 493d aaa0 1e3e b8bf ae3c bd15 9dbd
00000240: 9f9e 2ebc cae1 6b3d cd16 173e 41dc a9bc
00000250: c0ef d8bd 5a3a 583d d4b7 d93d 9ad6 c13c
00000260: d4a6 bdbd d752 cabd 2c10 3f3d 1ffb 173e
00000270: 499b 003e 127f 13be fb60 b1bd e03a a43c
00000280: b45e 1bbe 60f1 78be 8b60 a2bd 6c1d ed3d
00000290: a3bd 183e 2367 2c3d b09d 03be 5752 bc3b
000002a0: 8caa 23bd 35bc 173e 5608 573d a37b 293e
000002b0: 8fe9 483e e873 90bd ea68 103e 1ea3 1cbc
000002c0: d60d d73d 6c6c 11bd 8c7b d8bb ba18 123d
000002d0: cd3f 72bd f7bf 02be 0264 6ebe f5f8 40bc
000002e0: 2a88 e2bd c7ad 3bbd 0370 16bd eb40 473e
000002f0: 6db3 67bd 4ce1 423e 4b91 2a3d 235f bcbd
00000300: 3644 e23d 946b 1abe 4bcd 3abc 7faa 013e
00000310: 37df e6bd 3236 4a3e d3b7 53bd 5788 0ebd
00000320: 5d9c 953d 93ac eebd 838e 07be 0599 473d
00000330: b059 a63d 632f b83c 71fa 90bd 844f fabd
00000340: 1d1a 133e 4c88 7a3c 7289 653c 8bec 07be
00000350: d500 b2bc 6d00 6a3d b7db 66bd 12cf 063e
00000360: 0956 07be 8344 03be 92b6 8ebd 75b1 e63d
00000370: af25 253c 8826 303e 4e78 96bd 453f 51be
00000380: b18d 423c 18b7 453e 9da7 843d f93a 3ebe
00000390: bf13 16be d173 d83d fcf1 ca3d a2e1 043d
000003a0: 94eb b43d 381a 4bbe 6422 da3d 4e99 863d
000003b0: 0c12 2abe aac2 c53d 3ab5 e6bb af9c 903c
000003c0: 626c ef3d 7eed e73d 0bce a7bd d9e4 9a3d
000003d0: f3fc 0c3d 890f 313e c034 843d 95bc 263e
000003e0: 0b23 8ebd 012f 083d 8d3b 97bd 78fe 12be
000003f0: 9068 f1bd 6fec 66bd 3611 f6bc c131 18be

encoder.layer_1.multihead.fc_V.bias f4 [32]
-0.13183406 -0.046016026 -0.15827273 0.043136973 0.0708678 -0.15263766 0.12823296 -0.08755351
-0.058761463 0.022628067 -0.12327344 0.16083142 -0.17184785 0.075785875 -0.031535078 -0.080189325
0.15441504 0.11662374 0.07077943 0.062447608 -0.017831422 -0.11679218 -0.0894928 -0.12538609
0.08874999 -0.11827919 0.17379533 0.19840902 0.083728686 0.02258776 -0.14828533 -0.08722144
00000000: 82ff 06be 4d7b 3cbd 3f12 22be 65b0 303d
00000010: 2323 913d 0c4d 1cbe 804f 033e 414f b3bd
00000020: dcaf 70bd 7f5e b93c c976 fcbd feb0 243e
00000030: e2f8 2fbe a035 9b3d ed2a 01bd 4d3a a4bd
00000040: fa1e 1e3e 6dd8 ee3d cef4 903d 10c9 7f3d
00000050: 3413 92bc bd30 efbd 0048 b7bd 3665 00be
00000060: 8ec2 b53d 5c3c f2bd 67f7 313e bc2b 4b3e
00000070: f279 ab3d f709 b93c 1cd8 17be 28a1 b2bd

encoder.layer_1.multihead.fc_out.weight f4 [32, 32]
-0.005941662 0.032653313 -0.19297281 0.016519153 -0.06037733 0.12584402 -0.20497976 0.05934557
0.007203666 0.16857412 0.16114247 -0.022109985 -0.09926329 0.09731467 0.13322695 0.01122364
0.19109757 -0.09709368 -0.12182344 -0.25940546 0.015573398 -0.052098744 0.07336202 0.185786
-0.12952913 -0.15644778 0.16874641 0.13247249 -0.015071269 0.12803496 -0.20002216 0.1368471
0.08313354 -0.14623386 0.081609465 0.0006879407 -0.07000651 -0.2221372 -0.051611163 -0.010101863
0.066900335 -0.17391396 -0.026336886 -0.039819967 -0.10671118 0.15297873 0.07556624 0.038189612
0.040390033 -0.11041489 0.14106758 0.010916462 -0.10482063 0.010949324 -0.19509727 -0.05310702
0.08882923 -0.14262111 0.018417414 -0.15226075 -0.008655666 -0.0059953085 0.14384198 0.17839563
-0.01725137 -0.16424415 -0.07204558 -0.17869563 0.054495044 0.1443026 0.010617306 -0.023328152
-0.07894725 0.113155894 0.1002579 -0.12611264 0.13022617 0.09679754 -0.112277344 -0.17532417
-0.019876484 0.16260658 0.03578226 -0.17718032 -0.013162095 -0.2054898 0.16749819 0.057351224
0.08158273 0.054201737 -0.02929431 0.15777501 -0.16504501 0.030285696 0.10316749 -0.09157885
-0.16914788 -0.16191196 -0.07942052 -0.06677368 -0.054794062 0.14395949 0.14458689 -0.09199415
-0.09480397 0.05503731 0.11167612 -0.093409605 0.099712014 -0.051008645 0.0062516006 0.10341933
0.102843836 -0.108051494 0.09581961 -0.04748637 0.06465164 0.048538152 -0.09529647 -0.2006304
0.09540776 -0.014391145 0.1619903 -0.009717779 -0.11438161 0.03812479 -0.04449499 -0.105931215
-0.023681998 -0.034958474 0.03690177 -0.13000187 -0.11968035 0.0071572224 -0.056220382 0.13713227
0.18803054 0.10176437 -0.023121191 -0.15665853 -0.15890084 0.046099823 0.15865184 -0.0033723325
0.18198952 0.14946942 -0.1884258 -0.17611505 -0.09399703 -0.08825306 0.061143957 0.20514488
0.2103965 0.029535392 -0.1359122 -0.051007718 -0.056764092 -0.10311237 0.09785218 0.16781051
-0.048886135 -0.07638242 0.016660236 0.15230097 -0.10928471 -0.007055447 0.14048353 -0.027480839
-0.04012234 -0.025552563 0.0812206 0.13034675 -0.004894214 -0.061750263 0.059580877 -0.1488776
0.014353405 0.118962824 -0.22576602 -0.011694609 -0.040191766 -0.00970893 0.0678963 0.15394066
-0.0008644653 -0.15450484 -0.044635776 -0.1980747 -0.09791706 0.0374016 -0.075257584 0.07381272
0.041169345 0.14980246 -0.114921235 0.07076818 0.012773966 -0.041076526 0.17980301 0.1698998
-0.08820687 -0.14362614 -0.12600714 -0.0015280826 -0.15973005 0.113620184 -0.0029374945 0.06464725
-0.039995924 0.12095965 -0.16108891 0.07680029 -0.1922739 0.03827271 -0.021893593 0.07849816
0.052109435 -0.029409107 0.047533188 0.30458242 0.120453976 0.018367829 -0.019885512 -1.9835956e-05
0.029630564 0.0790221 -0.059266195 -0.040580932 -0.082865715 0.21717751 0.08518672 0.22746636
-0.07790224 0.01802643 0.08914949 -0.08814033 0.12217342 0.15162888 0.02770783 0.01895025
-0.10728988 0.12841465 0.023219375 -0.16356991 0.112519614 0.07273129 -0.02313299 0.010843382
-0.11909529 -0.06535218 0.11552838 0.09778723 0.1609259 -0.14726515 0.06384888 -0.16851567
00000000: 46b2 c2bb 7bbf 053d aa9a 45be 2d53 873c
00000010: 384e 77bd 41dd 003e 37e6 51be 5714 733d
00000020: bb0c ec3b b29e 2c3e 8802 253e 0020 b5bc
00000030: 8d4a cbbd ea4c c73d a56c 083e 5ce3 373c
00000040: 15af 433e 0dd9 c6bd 917e f9bd cbd0 84be
00000050: 9127 7f3c 7e65 55bd d43e 963d af3e 3e3e
00000060: 49a3 04be d933 20be dccb 2c3e dea6 073e
00000070: 7ced 76bc 991b 033e 9cd2 4cbe a521 0c3e
00000080: eb41 aa3d 54be 15be dd22 a73d eb56 343a
00000090: 935f 8fbd ef77 63be 3a66 53bd 4982 25bc
000000a0: 0b03 893d 8016 32be 74c0 d7bc 431a 23bd
000000b0: 648b dabd 75a6 1c3e 79c2 9a3d b66c 1c3d
000000c0: 0570 253d 3421 e2bd 0574 103e f6da 323c
000000d0: 33ac d6bd cb64 333c 94c7 47be bf86 59bd
000000e0: 19ec b53d 450b 12be 1ee0 963c 3eea 1bbe
000000f0: 7fd0 0dbc 4b74 c4bb 504b 133e 58ad 363e
00000100: bf52 8dbc 9e2f 28be a28c 93bd fdfb 36be
00000110: 3236 5f3d 10c4 133e 36f4 2d3c ae1a bfbc
00000120: 19af a1bd 47be e73d 0454 cd3d ac23 01be
00000130: 025a 053e ca3d c63d aaf1 e5bd 2e88 33be
00000140: 02d4 a2bc 5782 263e 6b90 123d c26e 35be
00000150: d4a5 57bc eb6b 52be a584 2b3e 1ee9 6a3d
00000160: d914 a73d a402 5e3d 9ffa efbc c68f 213e
00000170: 8f01 29be b519 f83c 7a49 d33d b18d bbbd
00000180: 1a35 2dbe 40cc 25be 3aa7 a2bd a4c0 88bd
00000190: bd6f 60bd 1e6a 133e 960e 143e 6e67 bcbd
000001a0: 9528 c2bd cd6e 613d 73b6 e43d 894d bfbd
000001b0: d035 cc3d 71ee 50bd 3ada cc3b 84cd d33d
000001c0: ca9f d23d 1a4a ddbd 123d c43d 1181 42bd
000001d0: 1468 843d f1cf 463d cc2a c3bd 0e72 4dbe
000001e0: 2565 c33d d6c8 6bbc c9e0 253e 5237 1fbc
000001f0: e840 eabd bd28 1c3d 6140 36bd 77f2 d8bd
00000200: c000 c2bc 9e30 0fbd 4f26 173d 361f 05be
00000210: f91a f5bd 2287 ea3b 5847 66bd 676c 0c3e
00000220: 148b 403e d769 d03d a768 bdbc 186b 20be
00000230: e7b6 22be 2bd3 3c3d a175 223e 5a02 5dbb
00000240: 765b 3a3e 830e 193e b1f2 40be 8157 34be
00000250: 8481 c0bd 05be b4bd 1672 7a3d 8011 523e
00000260: 2e72 573e 35f4 f13c 912c 0bbe 78ed 50bd
00000270: 7781 68bd 942c d3bd b966 c83d 85d6 2b3e
00000280: d43c 48bd 636e 9cbd 0c7b 883c c9f4 1b3e
00000290: a9d0 dfbd 6131 e7bb eada 0f3e 7f1f e1bc
000002a0: 5357 24bd 9c53 d1bc fc56 a63d 9e79 053e
000002b0: a55f a0bb d8ed 7cbd 140b 743d 5f73 18be
000002c0: 8b2a 6b3c c8a2 f33d 352f 67be bf9a 3fbc
000002d0: 1fa0 24bd 3412 1fbc 370d 8b3d 9fa2 1d3e
000002e0: 499d 62ba 8436 1ebe 01d4 36bd 18d4 4abe
000002f0: bd88 c8bd 6c32 193d a620 9abd 202b 973d
00000300: 30a1 283d d165 193e d35b ebbd e8ee 903d
00000310: e649 513c dc3f 28bd 481e 383e 37fa 2d3e
00000320: cea5 b4bd bb12 13be 0408 01be f249 c8ba
00000330: 4690 23be b3b1 e83d fb82 40bb c765 843d
00000340: c4d2 23bd b1b9 f73d 7ef4 24be 7849 9d3d
00000350: 73e3 44be d8c3 1c3d 315a b3bc a5c3 a03d
00000360: b470 553d 5eeb f0bc 29b2 423d 3af2 9b3e
00000370: 93b0 f63d 2178 963c f1e6 a2bc 6465 a6b7
00000380: ccbb f23c 57d6 a13d 1cc1 72bd 3138 26bd
00000390: 80b5 a9bd c863 5e3e 6076 ae3d f1ec 683e
000003a0: 368b 9fbd 2aac 933c 0294 b63d eb82 b4bd
000003b0: 0f36 fa3d 9a44 1b3e 88fb e23c 8e3d 9b3c
000003c0: ccba dbbd 217f 033e 8f36 be3c df7e 27be
000003d0: af70 e63d 24f4 943d 6581 bdbc 71a8 313c
000003e0: 3be8 f3bd 5dd7 85bd 259a ec3d ac44 c83d
000003f0: c2c9 243e adcc 16be 34c3 823d 5f8f 2cbe

encoder.layer_1.multihead.fc_out.bias f4 [32]
-0.11830013 0.08921935 -0.07487058 0.095127836 0.14447077 -0.050666247 -0.0051326947 0.13894571
0.12663986 -0.16403566 0.09573494 -0.029930728 -0.15163372 -0.091456935 0.072152466 0.11557175
-0.025371356 0.13223962 -0.1378115 0.05841012 -0.05486038 -0.12424308 0.10292492 0.0093635
-0.103053495 -0.0009479637 0.11588212 -0.03024246 0.049585946 -0.0365063 -0.030310387 -0.20073405
00000000: 5747 f2bd a2b8 b63d bf55 99bd 62d2 c23d
00000010: 25f0 133e 6987 4fbd 2a30 a8bb c947 0e3e
00000020: e1ad 013e f7f8 27be ae10 c43d 4931 f5bc
00000030: df45 1bbe c64d bbbd acc4 933d e2b0 ec3d
00000040: 97d7 cfbc d369 073e 751e 0dbe 733f 6f3d
00000050: 47b5 60bd 2873 febd 4dca d23d 5e69 193c
00000060: b60d d3bd c480 78ba 9b53 ed3d 09bf f7bc
00000070: a21a 4b3d a187 15bd 7d4d f8bc 3a8d 4dbe

encoder.layer_1.multihead.norm.weight f4 [32]
1.0090466 1.0052731 0.94387245 1.0776596 0.97027487 1.0487885 1.0524336 1.0126835
1.0669622 0.9924285 1.0666971 1.0157515 1.0000335 0.96814734 1.0857592 1.0897374
1.0013216 1.0482974 1.0024494 1.0544995 1.2137771 1.0062263 1.102319 0.9957966
1.0446842 0.9880598 1.1103835 1.0346668 1.0513117 1.0714396 1.0319357 1.0129144
00000000: 7028 813f caac 803f a0a1 713f c0f0 893f
00000010: ef63 783f b43e 863f 25b6 863f 9d9f 813f
00000020: 3892 883f cb0f 7e3f 8889 883f 2504 823f
00000030: 1901 803f 81d8 773f 28fa 8a3f 847c 8b3f
00000040: 4e2b 803f 9c2e 863f 4350 803f d7f9 863f
00000050: 0c5d 9b3f 06cc 803f ca18 8d3f 87ec 7e3f
00000060: 36b8 853f 7df1 7c3f 0c21 8e3f f66f 843f
00000070: 6291 863f ef24 893f 7816 843f 2ea7 813f

encoder.layer_1.multihead.norm.bias f4 [32]
0.014552583 0.004725099 0.036232192 0.015785784 0.0047541703 0.0032150527 0.0149816265 0.023306133
0.030473983 0.015317476 0.00027807988 0.007139944 0.0057858815 0.020850945 0.002043758 0.036087602
-0.028717898 -0.022683544 -0.00805267 0.0030826456 -0.0031721294 -0.0126681365 0.025368087 -0.03408496
0.020982504 -0.03541283 0.02352532 -0.0217802 0.0011244735 -0.0012786329 0.05848539 -0.0076936968
00000000: f56d 6e3c 01d5 9a3b 3568 143d 3051 813c
00000010: dfc8 9b3b a2b3 523b 7f75 753c 81ec be3c
00000020: 93a4 f93c 27f6 7a3c 40cb 9139 31f6 e93b
00000030: 7e97 bd3b 9acf aa3c 92f0 053b 98d0 133d
00000040: cc41 ebbc d7d2 b9bc 59ef 03bc 3606 4a3b
00000050: 80e3 4fbb 048e 4fbc bcd0 cf3c ac9c 0bbd
00000060: 80e3 ab3c 0b0d 11bd 2cb8 c03c 646c b2bc
00000070: 1263 933a cd97 a7ba 608e 6f3d 681b fcbb

encoder.layer_1.fc.fc.0.weight f4 [64, 32]
-0.03692629 -0.042270556 0.073083565 0.027815584 0.11882174 0.1748987 -0.15796229 -0.14222333
-0.04086625 -0.012031008 0.1491095 0.18560646 0.04895376 0.14502148 -0.0013826857 0.14225848
-0.12374366 0.12302354 -0.004625465 0.03652862 -0.026786111 -0.06493101 -0.22010359 -0.11640544
0.09243987 -0.05628115 0.117736325 -0.08808828 -0.015840001 0.16504619 -0.074441016 -0.17041197
-0.0019390421 -0.19492568 0.039186683 0.20328596 0.148903 0.15478866 -0.16627483 -0.08892477
0.060306747 -0.11378795 -0.015893027 0.044766206 -0.2359553 -0.11698358 -0.014696337 -0.26677987
-0.019503098 -0.009558747 0.10941881 -0.059573665 -0.11120128 -0.07788722 -0.02432059 -0.15217242
0.12912525 0.06785089 0.011045903 0.037278917 -0.108722515 -0.12478197 0.022524858 -0.1318273
0.1360276 -0.008227597 0.020277822 -0.18479498 -0.09173124 0.034595944 0.012488794 -0.08399008
-0.053274225 0.066720024 -0.085607 -0.042760007 -0.063556395 -0.08742009 0.11786824 -0.13657577
0.17005229 0.003820941 0.099948764 -0.015143641 -0.0059121703 -0.12714909 0.08225663 0.052712433
0.016798211 0.11441908 0.043595385 -0.052309833 0.104003 -0.09051353 -0.02135137 -0.1355193
0.24528778 0.12493428 -0.18050742 -0.041408625 0.11779382 -0.02174468 0.10102635 -0.12906383
-0.047135938 0.10856481 -0.17707561 -0.1450158 -0.100007005 0.017535659 0.062370088 0.033836316
0.059669953 -0.07058723 -0.03455855 -0.06891475 -0.1737655 0.13690723 0.11975968 0.004104599
-0.13363136 -0.1353997 0.09456421 -0.18405052 0.06825253 0.025172284 0.1763557 0.037141576
0.13031808 -0.070806526 -0.069652855 0.20506349 -0.123132385 0.23350519 -0.1844958 -0.08709122
0.040942863 -0.19506608 0.08821592 0.22834475 -0.26918903 -0.033606354 -0.123766094 -0.031870127
0.090286314 -0.11451801 0.07471008 -0.10676981 -0.059221644 0.03311249 0.034569222 -0.15248318
0.10745778 0.1827888 0.012335538 -0.15703602 -0.11140948 -0.1409522 0.02370455 0.13673876
0.066119105 0.0839373 -0.19613887 0.051248036 -0.13122182 -0.088841006 -0.10001517 -0.15987384
0.050315674 0.14088848 0.15306947 -0.061558437 0.023229428 0.14133085 0.18125968 -0.047917068
-0.10442694 0.028711027 -0.015939044 -0.16657074 -0.13983525 0.11858016 -0.03649309 -0.092467256
-0.07787178 -0.062231127 -0.0810822 -0.04469025 -0.118762404 -0.17105907 0.016159384 -0.031181075
-0.1352746 0.08321099 -0.108566545 -0.106735066 0.012852242 0.024350012 -0.037851766 -0.014726375
0.23399135 -0.17264454 0.013491486 0.14840056 -0.07413713 -0.0595792 -0.045752715 0.21098046
0.1394042 0.2487465 0.040901713 -0.1754654 -0.114265054 0.1345235 -0.009155873 0.22585344
0.1549777 0.18320088 -0.24945791 0.16633736 0.103495464 0.08866277 -0.019653019 -0.0035292811
0.22802842 0.08524268 -0.1990107 -0.045054045 -0.08600511 0.17280649 0.06727141 -0.04476835
-0.13479134 0.116902456 0.02696817 0.025265146 -0.18818784 0.06673495 0.012489965 -0.16918518
0.20612611 -0.021492682 -0.26386198 -0.012615331 -0.19752635 0.1604239 0.10566548 0.061609756
0.09936453 -0.008430495 -0.07997919 0.06635459 0.044155553 0.09700008 0.115218 -0.1926609
00000000: 0540 17bd e423 2dbd d6ac 953d 82dd e33c
00000010: d058 f33d a518 333e dec0 21be fea2 11be
00000020: 5e63 27bd b41d 45bc 29b0 183e 9f0f 3e3e
00000030: bd83 483d 8380 143e 3c3b b5ba 35ac 113e
00000040: 516d fdbd c4f3 fb3d 3691 97bb 099f 153d
00000050: 8c6e dbbc 8dfa 84bd d662 61be fa65 eebd
00000060: 1d51 bd3d 1087 66bd be1f f13d a167 b4bd
00000070: e4c2 81bc de01 293e 8874 98bd 7a80 2ebe
00000080: 7527 feba 999a 47be 3782 203d 322a 503e
00000090: 077a 183e eb80 1e3e f343 2abe 311e b6bd
000000a0: 3504 773d a809 e9bd 1832 82bc c55c 373d
000000b0: 449e 71be 1695 efbd e8c8 70bc 5f97 88be
000000c0: f6c4 9fbc 4a9c 1cbc f816 e03d 8403 74bd
000000d0: 7fbd e3bd 5683 9fbd f93b c7bc 16d3 1bbe
000000e0: 6939 043e 68f5 8a3d e0f9 343c c7b1 183d
000000f0: e9a9 debd b18d ffbd 0d86 b83c bcfd 06be
00000100: d24a 0b3e 0bcd 06bc ad1d a63c e53a 3dbe
00000110: 97dd bbbd 7ab4 0d3d cc9d 4c3c fe02 acbd
00000120: 1336 5abd 82a4 883d b952 afbd 1e25 2fbd
00000130: db29 82bd 4e09 b3bd e764 f13d 85da 0bbe
00000140: 3022 2e3e c168 7a3b f0b1 cc3d 091d 78bc
00000150: e1ba c1bb 5f33 02be 2a76 a83d fee8 573d
00000160: 679c 893c 8d54 ea3d 1391 323d d642 56bd
00000170: 86ff d43d 285f b9bd 11e9 aebc 92c5 0abe
00000180: b82c 7b3e 8bdd ff3d f0d6 38be 179c 29bd
00000190: e33d f13d e621 b2bc e7e6 ce3d 4f29 04be
000001a0: 9d11 41bd 3a57 de3d 4f53 35be 067f 14be
000001b0: 79d0 ccbd f1a6 8f3c c777 7f3d f397 0a3d
000001c0: 7b68 743d 0a90 90bd 448d 0dbd 2d23 8dbd
000001d0: 95ef 31be 6931 0c3e 9044 f53d df7f 863b
000001e0: a9d6 08be 38a6 0abe e1aa c13d bd77 3cbe
000001f0: fcc7 8b3d 1b36 ce3c 9796 343e c421 183d
00000200: 1a72 053e 0303 91bd 28a6 8ebd 2afc 513e
00000210: d52c fcbd fc1b 6f3e 78ec 3cbe e25c b2bd
00000220: b4b3 273d 67bf 47be 8caa b43d 35d3 693e
00000230: 25d3 89be d1a6 09bd 1479 fdbd 408a 02bd
00000240: 08e8 b83d 6b88 eabd 9901 993d 21aa dabd
00000250: 6592 72bd f6a0 073d 7598 0d3d 8d24 1cbe
00000260: d312 dc3d fd2c 3b3e ff1a 4a3c 0dce 20be
00000270: a72a e4bd c655 10be 0b30 c23c 3f05 0c3e
00000280: 7469 873d 52e7 ab3d a1d8 48be 76e9 513d
00000290: 035f 06be 46f2 b5bd c1d4 ccbd f8b5 23be
000002a0: cf17 4e3d 1245 103e 3ebe 1c3e b324 7cbd
000002b0: a44b be3c 09b9 103e 239c 393e b044 44bd
000002c0: cbdd d5bd 6333 eb3c 9992 82bc 8591 2abe
000002d0: f930 0fbe 28da f23d c779 15bd 795f bdbd
000002e0: 3d7b 9fbd 11e6 7ebd 6d0e a6bd 200d 37bd
000002f0: b439 f3bd 1c2a 2fbe af60 843c 746f ffbc
00000300: 6d85 0abe 866a aa3d 2358 debd ea97 dabd
00000310: 3692 523c ad79 c73c 740a 1bbd e546 71bc
00000320: 6e9b 6f3e bbc9 30be 650b 5d3c 51f6 173e
00000330: 35d5 97bd 5209 74bd 3367 3bbd 430b 583e
00000340: f9bf 0e3e 67b7 7e3e 8e88 273d 34ad 33be
00000350: cc03 eabd 87c0 093e 8402 16bc 2046 673e
00000360: 79b2 1e3e 0399 3b3e e571 7fbe 5754 2a3e
00000370: 6ef5 d33d d494 b53d 5eff a0bc 834b 67bb
00000380: 4880 693e b793 ae3d 76c9 4bbe 978a 38bd
00000390: 7223 b0bd 2ff4 303e 98c5 893d 045f 37bd
000003a0: be06 0abe 8e6a ef3d 5aec dc3c daf8 ce3c
000003b0: 50b4 40be 55ac 883d b6a2 4c3c e13e 2dbe
000003c0: b912 533e 6c11 b0bc eb18 87be 89b0 4ebc
000003d0: 5944 4abe 2a46 243e 2567 d83d 835a 7c3d
000003e0: a17f cb3d 0f20 0abc 21cc a3bd eae4 873d
000003f0: 74dc 343d faa7 c63d 6af7 eb3d e648 45be

encoder.layer_1.fc.fc.0.bias f4 [64]
-0.1283701 0.063765265 -0.11705159 0.08171948 0.048398864 -0.15664913 0.17389557 -0.10655491
-0.035752047 -0.14482167 -0.07247428 -0.12816215 -0.12803362 0.12682025 0.087254256 -0.07169357
0.05755859 0.030197583 -0.10442465 0.0233959 -0.14747427 -0.18596196 0.046227913 0.003306916
-0.05062846 -0.10543385 -0.04680191 -0.19176926 -0.123250656 -0.007123645 0.1441292 -0.046415295
-0.12551405 -0.14627795 0.0800465 0.11412156 -0.09144873 -0.012955057 -0.13469627 0.021334615
0.11927469 0.16524485 0.1816636 -0.020988418 0.049694493 0.082925215 0.10663689 -0.0027512147
-0.10821119 -0.16284724 0.16154046 -0.09541369 -0.16385096 -0.07864545 0.0678952 0.024655689
0.030752353 -0.10037006 0.0023364176 -0.15758617 0.011844867 -0.054256693 0.12110326 -0.19500218
00000000: 7473 03be 5d97 823d beb8 efbd 8b5c a73d
00000010: e33d 463d a168 20be ae11 323e 7639 dabd
00000020: bd70 12bd 224c 14be 656d 94bd f03c 03be
00000030: 3f1b 03be 2bdd 013e 5cb2 b23d 14d4 92bd
00000040: 8ec2 6b3d ec60 f73c 97dc d5bd c2a8 bf3c
00000050: 7f03 17be d06c 3ebe 7b59 3d3d d8b8 583b
00000060: ca5f 4fbd b4ed d7bd 5cb3 3fbd 295f 44be
00000070: d76a fcbd 776d e9bb 9b96 133e f71d 3ebd
00000080: c186 00be e3c9 15be 6bef a33d 90b8 e93d
00000090: 7949 bbbd 7341 54bc d2ed 09be eec5 ae3c
000000a0: 4a46 f43d f235 293e 0606 3a3e e7ef abbc
000000b0: 748c 4b3d b2d4 a93d 7164 da3d b94d 34bb
000000c0: d49d ddbd 6dc1 26be dd6a 253e 4168 c3bd
000000d0: 8cc8 27be de10 a1bd a30c 8b3d bafa c93c
000000e0: 5cec fb3c d18e cdbd 951e 193b 455e 21be
000000f0: f910 423c 443c 5ebd fc04 f83d a7ae 47be
